skin_lesion_model.pth (torch, 408004 bytes, 10 tensors)

conv1.weight f4 [16, 3, 3, 3]
00000000: 4ed5 ea3c af02 b13d 4203 c4bd 1c87 0d3c
00000010: 1b86 0a3d bb69 0abe 9fb0 03be dace a4bd
00000020: efe0 de3d 7985 a33d 5799 7c3e caf4 563d
00000030: ff1f 4f3e 772f 07bc 07b3 78bb 9d82 4d3d
00000040: 80c0 2f3e 0ef0 19be 587a 49be 33ce bf3d
00000050: adb6 1c3d 28da a8bd 059f 95bd 0f50 ccbd
00000060: 309b 18bd 7b4d 47be 2984 da3d 892f d3bd
00000070: 8cf9 f5bd ec00 9abd 846f b2bd f005 94bc
00000080: 6424 47be a033 3cbe efdf afbb d4f2 b8bc
00000090: 4605 f53d 7527 7abd 3626 c93c 0300 e13d
000000a0: 64c5 93bd dfb4 433e 5ed2 44bd 1be6 42be
000000b0: e386 573c 40bd 3cbd 4cd2 c33d 095f c4bd
000000c0: 8557 1c3d e26b 1bbe e89e 613e 3dbb 783e
000000d0: fec7 093e 835b 8fbd 8826 1cbe 6cb5 043e
000000e0: 11cb a6bc 65e8 933c 7d67 d43c f5b3 533c
000000f0: 9396 d63c ce4b 133e 42bc 223e 0a4c 2b3d
00000100: b2e8 09bc 5092 3abe 97d6 90bd 93ae 91bd
00000110: f609 70be a440 20be 1e05 2c3d defa b4bd
00000120: 2e51 4fbd d888 13be a337 e7bd 58af 443e
00000130: afcc 683d 6521 853c 5973 453d bd6c e2bd
00000140: fbcf 3dbe a900 a2bd 912e a6bd 9764 1f3e
00000150: fd82 19be b937 71bd 2104 0ebe 1532 563e
00000160: 5bb0 f8bc 0c66 41bc aa98 d73d cc8b 01bd
00000170: 8b50 4fbe 1b0c 4abe 701e e4bd 6550 1f3c
00000180: a93d 013b 0150 f43d 452c 293d 16fa fc3d
00000190: 956c 52be 3adb 843c 0878 a83d 81e2 043e
000001a0: bea9 b83d 540d f03d 68ca 633c 29f6 273e
000001b0: cf04 36be 282a 0f3e b12d eabd 596f 04be
000001c0: 7f60 34be 1bdc 09bd 484f 1f3e 5cb1 de3d
000001d0: b4ca 2d3d 68a2 353d 904b 513c 7556 383d
000001e0: ed72 2bbd ff0c 263e 9aa5 02be b2f5 253e
000001f0: c766 b2bc bd77 c9bc c89e 23be 15c1 09be
00000200: bc94 e6bd 6f03 a93d 8d83 29be 0266 48be
00000210: 182a 08be e9d7 223e b9cd 35be 5eff 153e
00000220: a825 5cbc 68f9 4f3d 7574 053d b246 6b3d
00000230: 34ec 1abe 1631 3c3d 037d 2a3e 9c8d dfbd
00000240: a35e 2b3d 9f63 85be 7408 a23d 6649 063e
00000250: cc12 363e 280d a73b 1f72 2bbe 3618 9c3d
00000260: c951 233e 1d7c 063e 3667 82be 8c46 36bc
00000270: 76a1 1a3d 2249 e93d 4126 8dbc 272e 3ebe
00000280: 0870 ba3d 81ee ff3d e420 94bd 1d6d c1bd
00000290: c1c2 9dbd 13e0 76bc f39e 233e 1e0f 32be
000002a0: 01eb 7dbc 7234 e23d 2ffd 463d c3eb 813d
000002b0: d000 073e 7fe1 df3d 1e20 023d 4dee 373d
000002c0: 135d 0b3e 3453 183e ce28 0d3e 5f6a 03be
000002d0: c62f 52bd 5529 56be dc5c 40be 425c 153e
000002e0: e787 2c3e 19ca 73be b5a2 dd3d be4c 8f3d
000002f0: a71e 353d 1dc9 b83d 3516 3ebd 3009 1fbd
00000300: fe2d d9bd c1fa 213e f300 e6bd cc21 a4bc
00000310: f095 18be bc37 363e 1cfe d63c 66fc 2d39
00000320: 2b23 9e3c 2a47 73bd 05ea f8bd bc9d 6d3d
00000330: 8629 2fbd 3dc9 1fbe b336 d93c 5075 dabc
00000340: 3f3d 4ebd 13ac c43d e9ad acbd c6d6 5ebe
00000350: 1dfa 38be 8980 eabd ef35 1fbe 2300 a23d
00000360: 48a4 6b3c a0d8 f5bd 24f9 cfbd 5652 46bd
00000370: c480 f7bd c111 203d 81eb 32be ed98 e0bd
00000380: 3460 63bc 5fa3 183e 1593 2c3e 1f31 4fbd
00000390: 6ec4 173d 6039 483e 34b3 253e 978d 39bc
000003a0: d427 503e cf52 34be c7ca ddbb dd5b 3f3e
000003b0: 8693 2fbe 3f80 c83d 822f 743e d732 3abe
000003c0: 54d2 583d 47d6 323e 1139 1a3e 71a7 a33d
000003d0: 41dc 933d ed89 423e d2f1 f33d c210 d3bd
000003e0: 930b 2dbd f46f 833d b03b 57bd 2f55 be3c
000003f0: 2e3d d93d feb3 9abd 9515 1d3e 83d6 84bc
0.028666165 0.0864309 -0.09570934 0.00863817 0.0338193 -0.13516895 -0.12860344 -0.08047266
0.108827464 0.07984442 0.2466787 0.052479543 0.2022705 -0.008251063 -0.0037948505 0.05017339
0.17163277 -0.1503298 -0.19675577 0.09365501 0.03826015 -0.08244735 -0.07305721 -0.099762075
-0.037257373 -0.1946315 0.10669739 -0.10311801 -0.12010488 -0.07519707 -0.08712676 -0.018069237
-0.19447476 -0.18379068 -0.005367271 -0.022576727 0.119638965 -0.061072785 0.024554353 0.1098633
-0.07215384 0.19111966 -0.048052184 -0.19033091 0.013154718 -0.04607892 0.09561595 -0.09588439
0.038169403 -0.15177873 0.22033274 0.24290176 0.13455197 -0.06999876 -0.15249074 0.12959832
-0.020360501 0.01805515 0.025928253 0.012921323 0.026194846 0.14384386 0.15892127 0.041820563
-0.008417295 -0.18219876 -0.0707218 -0.071133755 -0.234413 -0.15649658 0.041997068 -0.088369116
-0.05061453 -0.1440767 -0.11289909 0.19207513 0.056835826 0.016251275 0.048205707 -0.110558964
-0.1853637 -0.07910282 -0.081143506 0.15565716 -0.14991374 -0.058891032 -0.13868763 0.20917542
-0.03035753 -0.011804115 0.10527165 -0.03162746 -0.20245568 -0.1973118 -0.11138618 0.009723757
0.001972059 0.11929322 0.041301984 0.123523876 -0.20549233 0.016217817 0.08226019 0.1297703
0.09016751 0.11721292 0.013903238 0.16402496 -0.17775272 0.13980925 -0.11434496 -0.12933101
-0.17614935 -0.033657175 0.15557587 0.10873672 0.04242964 0.044344336 0.012774363 0.045004327
-0.04185765 0.16215895 -0.12758484 0.16207007 -0.021777524 -0.024593228 -0.15978539 -0.13452561
-0.112588376 0.08252608 -0.16554089 -0.19570163 -0.13297307 0.15902676 -0.17754258 0.14648196
-0.013436712 0.05077496 0.032581765 0.057440467 -0.15129167 0.04594525 0.1664925 -0.10915682
0.0418383 -0.26052567 0.079117686 0.13113937 0.17780608 0.005098004 -0.16742752 0.07621805
0.15949167 0.13133283 -0.2546937 -0.011125218 0.037751637 0.11390902 -0.017230155 -0.18572293
0.091033995 0.12496663 -0.07232836 -0.0944464 -0.07703162 -0.015068072 0.15978603 -0.17388579
-0.015497924 0.110451594 0.0485813 0.06343796 0.13183904 0.10931682 0.03176891 0.044904996
0.13609724 0.1487549 0.13785097 -0.12833546 -0.05131509 -0.20914204 -0.18785423 0.14585975
0.16848718 -0.23807563 0.108220495 0.06997059 0.044218685 0.09022734 -0.046407897 -0.03882712
-0.106044754 0.15818311 -0.1123065 -0.020035647 -0.14900947 0.17794698 0.026244216 0.00016592591
0.019303879 -0.05939404 -0.12154011 0.058011755 -0.04276421 -0.1560411 0.02651534 -0.026667267
-0.050351378 0.09603133 -0.08431608 -0.21761617 -0.1806416 -0.114502974 -0.15547918 0.07910182
0.014382429 -0.120042086 -0.10154942 -0.048418365 -0.12085107 0.03907943 -0.1747265 -0.10966668
-0.013877917 0.14906071 0.16852982 -0.050583955 0.037052564 0.19553137 0.16181642 -0.011325262
0.20327693 -0.17609714 -0.0067685577 0.18687387 -0.1714612 0.09790086 0.23846248 -0.18183456
0.05293496 0.17464553 0.15060832 0.07990921 0.072197445 0.18997927 0.11911358 -0.10305931
-0.042247366 0.06417838 -0.052547157 0.023233978 0.10607372 -0.07553862 0.15340264 -0.016215568

conv1.bias f4 [16]
00000000: 39e2 d53d ef87 043e ed18 33be 0a1c 53bd
00000010: 3606 383e c299 3fbe e621 a13c 6bc7 9f3d
00000020: c031 21bd d1cd 41be 7c36 203e ceba ef3d
00000030: 136e b5bd 23d8 b63d d0ac 9bbd 71b4 133e
0.10443539 0.1294248 -0.17489977 -0.051540412 0.1797112 -0.18710998 0.019669484 0.07801708
-0.039354086 -0.18926169 0.15645784 0.11705552 -0.088588856 0.089279436 -0.07601321 0.14424302

conv2.weight f4 [32, 16, 3, 3]
00000000: c8ec bebc 08e7 3c3d 01c8 843b 0e11 0b3c
00000010: fc29 4cbd 0ef0 8abd 48f1 a2bd 202e e83c
00000020: 9b79 83bd c39e b2bd 6c3d 403d 7a35 efb9
00000030: 18b5 4db8 2c86 c6bc dc1f 6e3d 153d 583b
00000040: 680b da3c 4e8d 6c3d 105d 203e cf17 0b3e
00000050: 9eee 66bc 6856 063d 3ce9 54bc 1072 d63c
00000060: bb99 083d 912d a53c 3360 333d 6d04 fbbc
00000070: 6151 883d c565 a43d 3ee1 203a d58d 5bbc
00000080: 84d9 97bc f16c 443d b3b3 5fbd 64ad 113d
00000090: 856a 3b3c 64ba 9f3d 00f6 79bd d272 303d
000000a0: 8829 2bbc 0805 ba3b e20f 9cbd 5fbe a9bc
000000b0: 245f 22bd 35dd 70bd e823 30bd ff99 a83d
000000c0: ec9c 943d f00d 28bd 61f8 9c3d 4a4d 683d
000000d0: c06c 373c 3109 82bc e630 bdbd a6d5 a4bd
000000e0: 5475 8e3b 4a96 583d 04fc 56bc 39c0 8ebc
000000f0: 4881 8cbd 09c7 a6bc 32b9 d5bd b2ef e83c
00000100: 63ef 7e3d c32e b13d 3f8f a8bc cc97 fdbb
00000110: ca09 38bd a3e6 65bc c8d0 65bd b2bb bd3d
00000120: b689 6cbd 89c0 88bc cccc 9b3a 5b66 ab3d
00000130: c5e9 7d3d 18d9 d03d 5e7a a03d e843 8dbc
00000140: b5de 7a3d 2f0f b83d 5efa 213e 5517 183e
00000150: 23bd 8a3d 3080 d13d e5ba 233d 1b2e c43d
00000160: 6d32 95ba f4fd 1c3d 7561 f8bd c596 91bd
00000170: bc0a 56bd 1ba9 c63c ff1d e7bc f961 0abe
00000180: b9a7 1cbe 85e3 23be 3337 05be ec85 cf3d
00000190: 176f 5e3c a6f8 3cbd 44d2 c2bc 5bf1 c13d
000001a0: 64c9 7b3d 67ce f63c 5719 383e 040e b33c
000001b0: d6ca 19bd 07be 6c3d d673 1d3d fe5b a2bd
000001c0: 0a31 843d d871 a83b fa5e 94bd e80a 513d
000001d0: 3654 aebc 823c d43d c6ff bd3d 3076 23bd
000001e0: ddbe 203e 1665 fe3d 4e43 1d3c 1e6f a93d
000001f0: b2e1 af3d 521c 99bc bee7 263d bcc8 7d3d
00000200: 7ae4 8e3d ad51 ad3c 99f1 aebd ab25 273d
00000210: bcab 4ebd b743 553d c08e ce3d afdb 46bd
00000220: 71f6 b33c 467c cb3d 17cf 143e 4af8 ba3d
00000230: e36d a43d 111d e83d 7c2f 8a3d 4dc1 0dbd
00000240: fe48 06bb 8a00 fa3a 58f4 16bd 9618 d2bc
00000250: 85e1 fe3c ae11 febb 30a8 923d 83c7 8c3d
00000260: dda1 0cbe 2c44 823c aac1 733d 4a0a 31bd
00000270: 2ce1 adbc fc01 07bc 06c7 c9bc 5a39 173d
00000280: c79a 37bd 3792 babd eabf 083d aa7a f83c
00000290: a6d9 a23d c5d5 163d d57a 083e bd37 063e
000002a0: 9026 ec3d 75f6 053e 42d2 093d 3af1 eebc
000002b0: e9a1 77bd 6b99 a5bc b1df 75bd eb79 a9bd
000002c0: 60f8 c1bc eb68 b43c c962 c03d 014e 503d
000002d0: 4f7c abbd 4b54 bdbd 9a4b b7bd ff95 2f3d
000002e0: 8f70 58bd b101 893d 42ac 2cbd 0794 033d
000002f0: dedf fbba 7827 75bb 41e3 d13d 4459 0a3d
00000300: cafd 163d 5928 b4bb fd25 65bd b95f 3fbd
00000310: 21b7 8e3d b38c 65bd c2f2 3f3d a14d cb3c
00000320: f76e 063c a071 963d 6a6f 163d 0e23 53bd
00000330: d7a4 693d 9b7f 483d 7254 75bd 21ca 373d
00000340: cd44 d9bc 06be 1a3d 7201 60bd 032a 2d3d
00000350: 7c98 ce3d 8e5e 92bd 18ab e6bc d832 cb3d
00000360: 5689 5abc b98d 8f3d 849a c33d 182d cb3c
00000370: cdba 393d 6352 b1bd 0c9d d43d b18b 6bbd
00000380: e327 95bd 3aab 113e 3a44 b53d 1520 663c
00000390: 9f4d 863d a809 7fbc 93d7 6c3e 7a79 0a3d
000003a0: 8080 ebbc 6088 1f3e e71a 98bc f525 2cbe
000003b0: ebff f3bd 870a 29bd 3819 1dbd 68dc 2d3d
000003c0: f628 03bd 6313 6abd 4add a13d 3ada 923d
000003d0: a0ff d53d 9013 603d 2faf 533d 63a4 67bd
000003e0: 169c 98bd 1c1d 773d 43fc 77bd 9723 1dbd
000003f0: 113c 4cbd ffca b33c 6190 5ebd 8971 6abd
-0.023306265 0.046118766 0.0040521626 0.008487953 -0.049844727 -0.06784068 -0.07956177 0.028342307
-0.06419679 -0.08721688 0.046933576 -0.00045625475 -4.9044465e-05 -0.0242339 0.058135852 0.0032995392
0.026616767 0.057751946 0.156605 0.13583301 -0.014094977 0.032797247 -0.0129950605 0.026177436
0.033349734 0.02016333 0.043792915 -0.030641759 0.06656147 0.080272235 0.00061370793 -0.013400515
-0.018536337 0.047955457 -0.054614734 0.03556575 0.01143897 0.07799223 -0.06102562 0.04307825
-0.010446914 0.0056768693 -0.07620217 -0.020720659 -0.039641514 -0.05880471 -0.043002993 0.082324974
0.07256493 -0.041028917 0.07664562 0.056714334 0.011195362 -0.015873523 -0.09237842 -0.08048563
0.0043474827 0.0528777 -0.013121609 -0.017425643 -0.06860596 -0.02035858 -0.10435714 0.028434608
0.062240016 0.08651497 -0.020576118 -0.007739043 -0.04493121 -0.014032039 -0.056107312 0.09264316
-0.05774852 -0.01669337 0.0011886596 0.08369132 0.061990518 0.10197657 0.0783584 -0.017244294
0.061247546 0.08987271 0.15818164 0.1485265 0.06774356 0.10229528 0.03997316 0.095791064
-0.0011382826 0.038328126 -0.121279635 -0.07108835 -0.05225633 0.024250558 -0.028212545 -0.13513936
-0.15298356 -0.1600476 -0.13009338 0.101329654 0.013576291 -0.046135567 -0.023781903 0.09469863
0.061471358 0.030127717 0.17978416 0.02185727 -0.037546955 0.05779841 0.038440548 -0.07927702
0.06454666 0.0051405244 -0.07244678 0.05103579 -0.02128039 0.103631034 0.092773005 -0.039907634
0.15697809 0.12421624 0.009598566 0.08273147 0.0858797 -0.018690262 0.04074835 0.061959013
0.06977172 0.02115711 -0.08542175 0.040807407 -0.050456747 0.05206653 0.10085821 -0.04854935
0.021968098 0.09935813 0.14532124 0.09129389 0.08028772 0.11333669 0.06747338 -0.034608174
-0.0020490284 0.0019073647 -0.036854118 -0.02564649 0.031113395 -0.0077535724 0.071609855 0.06873991
-0.13733621 0.015901648 0.059510864 -0.043222703 -0.021225534 -0.008240219 -0.024631035 0.03691993
-0.04482534 -0.091099195 0.03338615 0.030331928 0.079516694 0.03682496 0.13328107 0.131072
0.11530793 0.13082297 0.033647783 -0.02916776 -0.060457144 -0.020214757 -0.060027782 -0.08275207
-0.023678005 0.022022685 0.09393842 0.05085564 -0.08373319 -0.09244593 -0.08949967 0.042867657
-0.05284172 0.06689776 -0.042156465 0.03212359 -0.0019216498 -0.0037407558 0.10248423 0.033776537
0.036863126 -0.005497974 -0.05594443 -0.046722148 0.06968523 -0.056042384 0.04686237 0.02481729
0.008205167 0.07345891 0.036727346 -0.051547103 0.05704197 0.04894982 -0.059894986 0.0448705
-0.026522065 0.037778877 -0.05468888 0.042276394 0.10087678 -0.07146941 -0.028157756 0.09921807
-0.0133384075 0.07009453 0.09550956 0.024801776 0.045344163 -0.08658292 0.10381517 -0.057506267
-0.072829984 0.14225474 0.08850904 0.014045735 0.06557774 -0.015566267 0.2312911 0.033807255
-0.028747797 0.15579367 -0.018567516 -0.16811354 -0.11914047 -0.041269805 -0.03835413 0.042446524
-0.032021485 -0.057147395 0.07903536 0.0717053 0.10449147 0.054706156 0.05168074 -0.056553256
-0.07451646 0.060330495 -0.06054331 -0.03836402 -0.04986197 0.021947382 -0.05433691 -0.05723718

conv2.bias f4 [32]
00000000: 7641 36bd cea2 d7bc c692 3bbb cc5f 913c
00000010: 3e5e 5c3d 06fd 843d cce5 1cbd a092 b6bd
00000020: ea89 adbd 5ce3 783c ee45 3fbd 614a 593d
00000030: 5561 d0bc 8359 38bd bb23 6b3c b5e4 99bd
00000040: 8872 67bd 0964 3d3d b612 66bd 5d06 4ebc
00000050: 4ae7 a2bd ef57 1fbc ccdb 7a3d 23ef 913c
00000060: 8a17 5dbc 08a8 703c 1017 e0bb 6a60 b7bd
00000070: 6241 363d 49fe 883d 803a abbd 4b7d 1dbd
-0.044496022 -0.026322749 -0.002862142 0.017745875 0.053800814 0.06493573 -0.03830509 -0.08914685
-0.08473571 0.015190925 -0.04669755 0.05304945 -0.025437037 -0.04500724 0.0143517805 -0.075143255
-0.05650571 0.04623798 -0.056170188 -0.012574759 -0.07954271 -0.009725555 0.06124477 0.017814225
-0.013494382 0.014688499 -0.0068386868 -0.089539364 0.044495948 0.06689126 -0.08360767 -0.038449567

conv3.weight f4 [64, 32, 3, 3]
00000000: 2ba8 ca3c 5563 903c 6eec e6bd a6f7 213c
00000010: e589 c53d 0d44 65bd b25c cdbd c466 6d3d
00000020: f327 0bbd 914f a43d b0e8 103e 47fa 84bb
00000030: af43 883d 0ddb 3d3d ad5d b1bd 4657 f6bc
00000040: f1a2 56bd 7b53 0cbe f688 97bc 3245 2c3d
00000050: ef98 503d 16b8 7ebd 90dd ad3d 14ba 8a3d
00000060: 2f64 7bbc 21f1 8c3c 5250 9dbb 082c 73bb
00000070: f7af 4bbd ac94 98bc 818b b8bc bd07 453c
00000080: 49cf 01bc d20d 72bd fc54 e03c 8c8a 23bd
00000090: 5f16 1a3d 5c84 fc3b bedb bb3b 53e1 863d
000000a0: 48da 0abc 9898 3cbd fb14 57bd 8224 bcbc
000000b0: d2c0 f33c f7e6 62bd 51bd 0abc ed10 303d
000000c0: efaf 3f3d 61c7 343d dee6 d23c 6d07 783d
000000d0: 1d71 b3ba f29e b13c 1c3a 14bd c459 6d3c
000000e0: df4a 33bd 4c3f 95bd fceb 393c 2535 8e3c
000000f0: 4602 ccbb 6269 9abd b928 47bd f8bd c2bd
00000100: fd63 983d 6621 e83b 1c00 8f3c 3e6e 773d
00000110: dc84 67bd a73b da3d 1898 833d 866d 96bc
00000120: 8761 43bd c146 d0bc a43c 203a 7e70 8c3d
00000130: a6fa 753c 3b8d ca3c f044 9d3d 2d8e 953d
00000140: 0a45 b03c dfab 32bd c0a5 503d f480 01ba
00000150: f8d1 aabc 02c5 f43c ad73 acbc cba6 07bd
00000160: c99c 35bd 8c83 cbbd e223 c4bc 063c 0dbd
00000170: 4e8e c1bc 72d8 97bd 7b6c 5e3d ec75 133d
00000180: 2ca1 a33b ed30 033d 5ab5 303d 1925 3cbd
00000190: 5896 963d f41c bdbc eca0 f9bc 71a9 a53d
000001a0: c024 d0bc c9e7 bfbd dd6c b1bd b80f b7bd
000001b0: 2147 893c b96a db3d 1bb5 3fbd 994c d23c
000001c0: 1970 913c 5d08 abbc 0876 18ba 71e3 0dbb
000001d0: 6c38 0dbe 68bc 54bd d52f 083d e7e3 613d
000001e0: 03fd bdb9 1ff8 2b3d ffb9 2bbc 124d 38bd
000001f0: 7fdc 41bd 2c17 77bd 2284 ff3c 43af 063d
00000200: db16 843d 8efe aabd eb5d 12bc 2bee 02bb
00000210: 6a40 06be 7c30 c8bd 23b7 d0bd a862 473b
00000220: 975e e93d 4061 e73c 42db 3b3c 09f5 f13b
00000230: e22c ad3d f23b c3bb ff2b 7ebd 6f31 ccbb
00000240: 38aa ae3d 0143 5e3c b1f6 163a 0b92 4b3d
00000250: 5873 3d3b 1065 043d a7fb de3c 6a74 a93c
00000260: e57a eebb 5ab5 5abd 11b5 043c ade6 84bd
00000270: 881a 573d 28d1 3f3c eb10 f1bc d30f 82bc
00000280: 4f52 f43c 1726 74bd 6c77 ddbc 37c8 683c
00000290: c3dd 443c 2209 243d 8909 7c3d aeb7 ab3c
000002a0: 1892 3b3d ef22 1fbd b834 483d a3c7 c2bb
000002b0: 4c14 6a3d a0c1 0dbc cbb8 00bd 4136 013e
000002c0: 1e66 77bd de93 4ebd c3e2 86bd 67b9 a8bc
000002d0: 84bf 07bb 1e15 a5bb dd7e 453d 7b2f 113d
000002e0: df4f 94bc 1f79 97bc c657 82bd 2b0f 703d
000002f0: 6123 23bc bf03 773d ca19 933d 9db1 d13c
00000300: b60f 6fbb 1764 1dbd 08aa d43c 4e5e 053d
00000310: cbdf 50bb 8d71 23bd d79e 7d3b ae6a 423d
00000320: d6d6 8d3d db20 49bd b1de bd3a 749b 11bd
00000330: 5380 e53c be69 a5bc b4e4 053d fb82 863a
00000340: beb9 883d 48a3 16bd 5df7 9b3d a9a9 4abc
00000350: 6eab 9e3c 06b1 243d 2ad8 8b3b 8496 d83c
00000360: c8f1 af3a a881 563d 93fa 9a3c ade7 053d
00000370: 9a87 8d3d 38fb 0abd 4523 883d 1de0 70bd
00000380: 4db2 f2bd db57 66bd a5b3 2a3d 626a 0bbd
00000390: e088 6bbd 34e3 00bd 75ee 743d e824 933c
000003a0: e1cc 63bd ed1a aebc 01e9 7b3c dd96 493d
000003b0: b3b3 263c 8a8c bf3b 1b6c c33d 1858 673c
000003c0: b3e6 263d f5d3 3dbc 0dce b5bc 7484 043b
000003d0: 3c6f 5d3d 9c42 583d be57 bd3c c708 163c
000003e0: ab91 ae3c 9eb5 8d3c 961b 55bd af29 353c
000003f0: 5bb5 1d3d c457 b03d 8e31 d4bd a23d 273d
0.024738392 0.01762549 -0.11275564 0.009885704 0.09645442 -0.0559731 -0.10027446 0.057959333
-0.033973645 0.080229886 0.14151263 -0.0040581557 0.066535346 0.04635148 -0.08660445 -0.030070912
-0.052401487 -0.1370372 -0.018497925 0.042058177 0.0509271 -0.062187277 0.08489525 0.06773773
-0.01534371 0.017204823 -0.0048008347 -0.0037105102 -0.04972836 -0.01862558 -0.022527458 0.012025771
-0.007922956 -0.05909521 0.027384274 -0.03992705 0.03761899 0.007706208 0.0057329824 0.06585946
-0.008474894 -0.046043962 -0.052510243 -0.022966627 0.02975503 -0.055396046 -0.008467988 0.04298489
0.046798643 0.044135455 0.025744852 0.060553957 -0.0013690327 0.021682236 -0.03618823 0.014486734
-0.043772575 -0.072874635 0.011347767 0.017359326 -0.006225857 -0.075396314 -0.04862282 -0.0950889
0.07440946 0.0070840595 0.017456107 0.06040787 -0.05652319 0.10655909 0.06425494 -0.018362772
-0.04770043 -0.025424363 0.0006112552 0.06857394 0.0150133725 0.024725547 0.076791644 0.073025085
0.021517295 -0.04362094 0.05093932 -0.0004940175 -0.020852074 0.029879097 -0.021051252 -0.03311805
-0.044338975 -0.099372 -0.023942892 -0.03448107 -0.023627426 -0.074143305 0.054302674 0.03600113
0.0049935784 0.03202908 0.0431417 -0.045933817 0.073528945 -0.023085095 -0.030472241 0.08088959
-0.025408149 -0.093703814 -0.08663342 -0.08938545 0.01675755 0.10713715 -0.046803575 0.02567129
0.017753648 -0.020878011 -0.0005815928 -0.0021650458 -0.13791054 -0.05193749 0.03324874 0.055148985
-0.00036237398 0.041984674 -0.010481357 -0.044995375 -0.047329422 -0.060324833 0.031190936 0.032881986
0.06449672 -0.08349334 -0.008933525 -0.0019978385 -0.1311051 -0.09774873 -0.101911806 0.0030423794
0.11394995 0.028244615 0.011465849 0.007383947 0.08455826 -0.005958074 -0.062053677 -0.006231479
0.085285604 0.01356578 0.0005758806 0.049699824 0.0028907862 0.032322943 0.027219607 0.020685393
-0.0072778338 -0.053395607 0.00809981 -0.064893104 0.052515537 0.011707582 -0.029427012 -0.015876686
0.029824404 -0.059606638 -0.027034484 0.014207891 0.012015763 0.040047772 0.06153253 0.020961609
0.045793623 -0.038851675 0.0488784 -0.0059442087 0.057148263 -0.008652121 -0.031426232 0.12618352
-0.06040012 -0.050433986 -0.0658622 -0.02059622 -0.0020713517 -0.0050379178 0.04821669 0.03544567
-0.018104492 -0.018490372 -0.06364398 0.058608215 -0.009957165 0.060306307 0.07182653 0.025597388
-0.003647787 -0.03842553 0.025959983 0.03256064 -0.0031871672 -0.039903212 0.0038699412 0.04746502
0.06925742 -0.0491036 0.0014485923 -0.035548642 0.028015291 -0.020192023 0.03268881 0.0010262424
0.066760525 -0.03677681 0.0761554 -0.012369552 0.019368853 0.040207885 0.004267712 0.026438959
0.0013423497 0.052369744 0.018918311 0.032691646 0.069106296 -0.033930987 0.06647352 -0.05880748
-0.118504144 -0.05623613 0.04167523 -0.034037 -0.05750358 -0.031466678 0.059797723 0.017961934
-0.05561531 -0.021253074 0.015375377 0.04921614 0.01017468 0.005845611 0.09542104 0.014120124
0.040747356 -0.011586179 -0.02219298 0.002022055 0.05406116 0.0527979 0.023113128 0.009157366
0.021309694 0.017298516 -0.05202826 0.011057301 0.038503032 0.0861049 -0.10361014 0.040830262

conv3.bias f4 [64]
00000000: 2292 03be 3dc2 963d 7545 b13c f0c5 48bd
00000010: f829 8f3d 9c59 9dbd 04ef f5bd d104 72bd
00000020: adec 3f3d f8a8 993c d213 99bd fe09 a63d
00000030: 89b1 1abc 21fe 6bbd aedd 03bd 2ca9 183d
00000040: 0f34 f83c 62d9 b93c 124a 24bd 57b2 b9bc
00000050: 07cf 243d ae0a f9bd 65ba 4c3d b278 8ebd
00000060: 7ec6 dd3c 9e91 463d 005d d0bc b933 b83c
00000070: 4b28 6dbd d270 b8bd a032 81bd 3181 bc3c
00000080: a52a 24bd 155e 433d 30b2 713d 47d0 60bd
00000090: 0efc edbd 6a44 a6bc 3d01 1dbc 5a45 753c
000000a0: c86b 41bd a4f5 733d 8d17 8f3d df7c 72bb
000000b0: d132 39bc 4829 8cbd bf90 313d 4445 c8bc
000000c0: d258 833c d8a6 cfbd 69d0 693d 5c03 88bc
000000d0: 0bb9 643d 532f 703c 793e 99bd dfbb 89bd
000000e0: f0d6 81bd f76c c1bd d4d8 a33d 465a a0bc
000000f0: 8b21 503c 37f2 2c3d ca88 14bd 84fa 5fbd
-0.12848714 0.07361267 0.021639565 -0.049016893 0.06990427 -0.07683107 -0.12008479 -0.059086625
0.04685657 0.018757328 -0.074744835 0.081073746 -0.009441742 -0.057615403 -0.032193832 0.03727071
0.030298261 0.022686664 -0.0401097 -0.022668047 0.0402365 -0.1216024 0.049982447 -0.069566146
0.027072188 0.048478715 -0.02543497 0.0224856 -0.057899754 -0.09005894 -0.06308484 0.023010822
-0.04007973 0.047697145 0.059007823 -0.05488613 -0.11620341 -0.020296294 -0.009582815 0.014970148
-0.04722193 0.059560433 0.06986914 -0.0037000699 -0.0113036195 -0.06843811 0.04335093 -0.02444709
0.016033564 -0.10139245 0.05708352 -0.016603164 0.055840533 0.0146597205 -0.07482619 -0.06725287
-0.06339824 -0.094446115 0.08000341 -0.019574296 0.01270331 0.04222318 -0.036263265 -0.05468227

conv4.weight f4 [128, 64, 3, 3]
00000000: d2dd 9c3c 24b2 4d3d 5638 4a3d 56bc 08bd
00000010: 7677 0f3d 0e06 913b 3c4b 0ebc 6ef2 a8bc
00000020: e471 463c 1b62 bbbd 1a84 c4bd a79f 0e3d
00000030: 34cc 81bc 27e2 0d3c 59e0 e2bc a629 70bd
00000040: f2c6 903c 9b4d 083d fce3 a73b 3689 ddbc
00000050: 0ed5 fe3c 3742 cabd e686 903b 34f4 5cbd
00000060: 963b a1bd 3359 e93b 6bd4 e5bc f4f6 26bb
00000070: 6f34 d0ba e7d4 f23c a3c5 fb3c d687 143c
00000080: e347 893d cc68 a2bc 47ec 953c 1950 a13d
00000090: c5a0 6a3d 3008 873c 0822 023d 4e6e 85bc
000000a0: fc91 19bd d21d a23c 37a1 e9bd 8912 ed3b
000000b0: e835 ce3c da3c e73c c63c 99bd 46d9 d53c
000000c0: dabc 323d f73f 07be 7838 b23d ad1e c9bb
000000d0: 18a4 adbd f940 3ebb a644 91bb ac15 92bc
000000e0: 042c 5cbd ff2a b63d bbca b43b 8028 d3ba
000000f0: 61b2 bd3d 855d beba 51f3 263d 5083 07bd
00000100: fe37 0b3c 3577 1e3d b855 4ebc 9b66 4f3c
00000110: 4a32 23bd 6b48 4a3d c8d3 583c aeca 72bc
00000120: af2c c5bb 7ee5 acbd bbf4 343d b132 68bd
00000130: b7d3 30bd 065a 3abd 8ab2 35bd 63ff 4bbc
00000140: fd5e 3dbc e8bc a93a 4ab3 99bd ea7e 93bb
00000150: 383d f9bb 651e 00bd 1542 0f3d 9a30 babd
00000160: b0cf ac3c 5882 16bd 83e8 3e3b 1035 833c
00000170: 5020 0d3d 5e32 21bd d52a e6bc 272e 08bc
00000180: 7890 183c 71ff 283d b4ae 9ebb 2d07 103d
00000190: e2da c2bc 6c2e 56bc 376c 1bbd 6603 953c
000001a0: 4abd 513c cb14 b1bd 8489 e1bc 7556 623d
000001b0: 803b 22bb 640d 513d def8 6ebc 7b37 1bbc
000001c0: da30 34bc 6848 febc 85a5 87bd e2ed c73c
000001d0: cd4b 333d 8b09 89bd 406b cb3c 51ed 1c3d
000001e0: 4c43 74bd 3703 473c c926 6b3c bcfe d53c
000001f0: e2de 493d 5a9a 603d 1058 95bd b584 9cbc
00000200: 4168 84bc 055e 05bd d85f ddbb 61fa bb3b
00000210: 26ef dd3c 2615 ab3d e396 843d 58f2 82bd
00000220: 850f bcbb eeeb 1bbd da7f c03c b575 223d
00000230: 3329 383c c7f2 5e3d 744e 633d d993 50bc
00000240: 71ff 27bc 113e 95bd 7b99 84bc f521 c8bd
00000250: 5819 f0bd 3fe5 b9bc 019b f23b 406c 183d
00000260: a30c 35bd 5ad8 9bbd 5575 253c 608b 35bd
00000270: dbf0 f83c 9174 36bd e92e 723c 1ed8 503d
00000280: 49b6 84bb f05f a93d a932 8d3d 09e8 073d
00000290: 4d67 fa3b 4b09 363d 8165 0fbd cfc8 593d
000002a0: 0a4a c9bd a640 933b c5e8 aebd 4f3f 893b
000002b0: cc55 b2bb fa92 ebbc 6084 9dbd 4563 05bc
000002c0: 1735 8abb 1088 b9bc 7507 a4bc b77e 893d
000002d0: 7a85 9c3c 1fdc 42bd 3d5b 32bb 7358 493d
000002e0: 0766 153c ea80 533d b5f3 ebbc 824f 16bd
000002f0: 49ef a03b 2b79 32bd 6a9c a4b9 3552 d93d
00000300: 761b e83c 6de8 083d f7b3 393d caff 353e
00000310: c0c7 ddbc 812c a8bc 8e76 523d f51c 49bd
00000320: 9143 433b 6b43 a6bd 22f9 9d3c ba3a e8bc
00000330: fced 41bd cb68 d13c 8d7e 213d ee97 4dbe
00000340: 3ef8 01bd 6cc2 8bbc 225e 12be 22bc d23c
00000350: 6809 31bc d5d7 2fbd 3840 dcbc 3f0a 3a3d
00000360: 5315 33bc 400a 24bc 03d7 3abb 4bd2 36bd
00000370: 3627 d23c 5019 c5ba c309 1fbc 9dc0 1cbc
00000380: fffb f73c 206e 57b9 4a27 03bd 3287 bf3c
00000390: c9d0 07ba 6f00 97bc b044 80bc e2e9 87bd
000003a0: fcd4 80bd c951 81bd 2de1 9dbd cb70 a1bd
000003b0: 8b9b d4bb 2035 b33c 83d9 edba e2d5 9b3d
000003c0: c948 3d3d 9be2 1fbc afb3 b73d 75c4 aabd
000003d0: 405a d9bd a811 5ebb 6bdf 153d eb2c ecbc
000003e0: 3d61 f63c 4800 013c e82b a53c 5c9d 86bc
000003f0: 19ce c13d 37ea 8e3c ef41 a6bc bf53 383d
0.01914874 0.050218716 0.049370132 -0.033382736 0.035026036 0.0044257706 -0.008684929 -0.020623412
0.012112115 -0.091495715 -0.09595509 0.034820225 -0.015844442 0.008659876 -0.027694868 -0.05863347
0.01767299 0.033277135 0.0051236134 -0.027042966 0.031107452 -0.09875911 0.0044106124 -0.053943828
-0.07872693 0.007121229 -0.02805539 -0.0025476785 -0.0015884767 0.029642535 0.030733889 0.009065589
0.067031644 -0.019825362 0.018301142 0.078766055 0.057282228 0.016483396 0.031770736 -0.016287949
-0.037492737 0.01978961 -0.114077024 0.0072348756 0.025172189 0.028227258 -0.07482295 0.02610458
0.043637134 -0.13207994 0.08702177 -0.00613769 -0.08478564 -0.0029030426 -0.0044332324 -0.0178326
-0.053752914 0.088949196 0.0055173314 -0.0016110092 0.09262539 -0.0014523721 0.04075939 -0.033084214
0.008497236 0.038687903 -0.012593679 0.01265874 -0.03984288 0.04938547 0.013234086 -0.01481883
-0.0060172896 -0.0844221 0.044178706 -0.056688968 -0.043170657 -0.04549601 -0.04435972 -0.012451026
-0.0115582915 0.0012949975 -0.075049 -0.0045012133 -0.007606175 -0.031278986 0.03497513 -0.09091301
0.021095127 -0.0367454 0.0029130287 0.016016513 0.034454644 -0.039354675 -0.028096596 -0.008311785
0.009311788 0.041259233 -0.0048426036 0.035163093 -0.023786012 -0.013072591 -0.037945 0.018190097
0.012801478 -0.08646544 -0.027531393 0.055258233 -0.0024754703 0.05103816 -0.014585702 -0.009473677
-0.010997975 -0.031040385 -0.06623367 0.024405424 0.04377346 -0.06691273 0.024831414 0.03831226
-0.05963449 0.012146763 0.014352509 0.026122443 0.049284823 0.0548347 -0.07292187 -0.019106248
-0.016162993 -0.032560367 -0.00675581 0.0057366346 0.027091574 0.08353643 0.06474092 -0.0639388
-0.0057391548 -0.038066797 0.023498464 0.039663035 0.011240291 0.05443075 0.05549474 -0.012730562
-0.010253773 -0.07287229 -0.016186466 -0.09772102 -0.11723584 -0.02269232 0.007403732 0.03721261
-0.044201504 -0.07609625 0.010098775 -0.04432237 0.030388286 -0.04454476 0.014781692 0.050987355
-0.0040500504 0.08270252 0.06894428 0.03318027 0.007641709 0.044442456 -0.03500891 0.05317002
-0.09828575 0.0044937907 -0.08540491 0.004188455 -0.0054423567 -0.028756607 -0.07691264 -0.0081413435
-0.0042177546 -0.022647887 -0.020023087 0.06713622 0.019106615 -0.047573205 -0.0027215027 0.049156617
0.0091185635 0.051636614 -0.028802732 -0.03669692 0.0049113375 -0.043572586 -0.00031397055 0.10611383
0.028333407 0.033424783 0.045337643 0.17773357 -0.027072787 -0.020529034 0.051382594 -0.04909988
0.0029794911 -0.08118328 0.019283835 -0.028348316 -0.0473461 0.025562664 0.03942733 -0.20077488
-0.031730883 -0.017060481 -0.14293721 0.025724474 -0.010805465 -0.042930443 -0.02688609 0.045419928
-0.010930377 -0.010012209 -0.0028509505 -0.044634145 0.025653463 -0.0015037451 -0.009706917 -0.009567407
0.030271528 -0.00020545023 -0.03201989 0.023379896 -0.0005180953 -0.018432824 -0.015657753 -0.066364065
-0.062906235 -0.063144274 -0.077089645 -0.07882842 -0.0064882687 0.021875918 -0.0018146489 0.07609154
0.04621199 -0.009758617 0.08969819 -0.083382525 -0.10612917 -0.0033885036 0.03659002 -0.028830012
0.030075664 0.007873602 0.020162538 -0.016432457 0.09463138 0.017445667 -0.020295111 0.04500174

conv4.bias f4 [128]
00000000: aef8 c8bd 5d22 abbd 1005 b7bc a28e b4bc
00000010: 34d9 96bd 017a 04bd 3e8c 37bd 8bb9 08bd
00000020: 419e e53c 87c7 85bd a693 efbd 38f0 81bd
00000030: bd53 d8bc 88a3 57bc 5e6f cebc 312f ccbd
00000040: 6f9e edbc d7c5 9cbc 6d54 84bd 0af2 7cbd
00000050: 77e8 0cbd f79d a43c bdb3 63bd 0fd6 f2bd
00000060: 396b 32bb b1ee 78bd 94b9 c5bc 31de 51bd
00000070: 5511 89bd cf57 1cbd 83ac 413c edf2 063d
00000080: 0e63 bdbd 85a6 abbd d716 e93c 696b 593c
00000090: f1c1 c5bc d05e f4bd f13c 43bd b359 ad3b
000000a0: d538 afbd 9023 663b a391 b2bd 6e5f adbc
000000b0: 46aa b9bd a594 a4bd 638f 8abd 0eb0 19bd
000000c0: f978 5ebc f844 23bd 988b 77bd 5fb6 013d
000000d0: e735 26bd ed98 223b fa5f 5abc 7d77 c1bd
000000e0: cdf6 07bd d752 4cbc 325e df3c 839e 15bd
000000f0: faff 24bc 1bf1 0abd 6630 cfbc 7443 01bd
00000100: 3a54 8ebd c15b ebbd dc94 5939 fa76 653c
00000110: c87b babd 4de2 81bc a0da 8a3c 22e7 c33b
00000120: e701 bfbd 191b 87bd 82a1 25bc 70b8 4cbd
00000130: 377e 7ebd 8e94 1e3c e170 63bc 4b78 e6bc
00000140: a506 89bd ce0c b6bc 72c1 80bd 1545 7a3c
00000150: 3b0c 37bd e20f c0bc 231e 99bc 8b8c 463d
00000160: 9ca4 84bd 0199 adbd 4750 3bbd 4f8f 12be
00000170: a830 66bd c7a9 d2bd 4665 20bd acbb 9cbd
00000180: 46bb 24bd e626 d93c ad4c 6bbd 13ba bebc
00000190: 8532 81bd 9b22 a0bc 7e69 e6bc 1069 31bd
000001a0: b5d6 9b3b 52af 16bd b6a2 e3bb 782f 80bd
000001b0: c1f0 babc 14c1 d4bd 8ae9 353d 156e 5ebd
000001c0: 150b 30bd 5651 d5bd 4676 00bd 3b18 9ebd
000001d0: dcb5 77bd 89fc 7abb d9e4 2abd f7e8 f33c
000001e0: 9260 b83c 1db7 023d 771c 08bd 8dbb 2c3d
000001f0: 97c5 8cbb a86d ee3c 16e8 53bd 4c78 bbbc
-0.09813057 -0.08356164 -0.022341281 -0.022040669 -0.07365647 -0.032342914 -0.04481148 -0.033380073
0.028029563 -0.065321974 -0.116980836 -0.06344646 -0.026407117 -0.0131615475 -0.025199588 -0.099699385
-0.029006211 -0.019137306 -0.064614154 -0.061754264 -0.034401383 0.020094855 -0.055591334 -0.11857235
-0.0027224554 -0.06077451 -0.024136342 -0.05123729 -0.06692759 -0.03816968 0.011820915 0.032946516
-0.09247409 -0.083813705 0.028453274 0.0132702375 -0.02414033 -0.119321465 -0.04766554 0.005290234
-0.08555762 0.0035116412 -0.08719184 -0.021163668 -0.0906568 -0.08036164 -0.0676563 -0.037521414
-0.013578647 -0.039860696 -0.06043586 0.031668063 -0.04057875 0.002481039 -0.013328547 -0.09446619
-0.033194352 -0.012470922 0.027266596 -0.03652812 -0.010070795 -0.033921342 -0.025291633 -0.03155847
-0.06949659 -0.1149211 0.00020750187 0.014005417 -0.09105641 -0.015854979 0.016949952 0.005978481
-0.09326535 -0.06596965 -0.010109307 -0.04998058 -0.062132087 0.009678973 -0.013881893 -0.028133532
-0.066907205 -0.022222903 -0.06286897 0.0152752595 -0.0446894 -0.023445074 -0.018691128 0.048473876
-0.06476709 -0.08476449 -0.045730855 -0.1431248 -0.056198746 -0.10286289 -0.039159082 -0.07652983
-0.04021766 0.026507806 -0.05744617 -0.023282086 -0.06308464 -0.019547751 -0.028126474 -0.043313086
0.0047558197 -0.036788292 -0.006946887 -0.06259054 -0.022819879 -0.10388389 0.044412173 -0.0543042
-0.04297932 -0.10415904 -0.031362794 -0.07719465 -0.06047617 -0.0038297495 -0.041722152 0.029774172
0.022506986 0.03191291 -0.03323027 0.04217105 -0.0042960155 0.029105023 -0.051735006 -0.02288451

fc1.weight f4 [7, 512]
00000000: 9385 38bc 6ebc 1c3d 348d 273d 422a 19bd
00000010: 2d61 3e3c 250a 6f3d d0c3 903d 845a 49bd
00000020: 8cd0 f1bc 9a51 103d 443e 143d 7bf9 703b
00000030: f46f 1fbd 6bb1 7e3d f096 acbc 9f1f 843d
00000040: 5134 6fbd 705f 9fbc 54e0 adbb 7be7 b53d
00000050: cd3a b53d 5cb0 c03d e088 a0bd 604c 54bd
00000060: 513b 553d e5d7 013d 6d1c 79bd 30da 383b
00000070: b003 c83c b3b6 823d dcde cb3a 8d1e dfbb
00000080: 50c2 d13c c11b 353d 1454 bbbc 0c23 12bd
00000090: 1b39 3dbc 91c1 ed3c 9e42 863d 03df 1ebd
000000a0: a6ba 0b3d a93b 3bbc e33c 0ebd 2974 6f3d
000000b0: f4ef 1d3b 474a b73d b7d4 25bd f7df c5bb
000000c0: dabd 4ebd e2be 4e3d c7ea ce3c 6e8e 2c3d
000000d0: 92e7 0d3d c851 e1bc 60a8 693d e4fd b1bc
000000e0: 7786 933c 82f4 5c3a b0f1 84bd 669f 37bc
000000f0: 4dc0 b03c 3ce0 9e3d 6dbf e3bb 9bd3 4f3d
00000100: 4764 283c dc00 82bc 4588 27bd 2776 593c
00000110: 962f 2b3d 3e34 7abd 3d61 c2bb f131 fd3c
00000120: 499d 1d3d f322 003c 34f3 b7bd cab0 8d3d
00000130: d32f ef3c 37fc 363c c3b9 33bd f965 0e3d
00000140: db7e 143d b21c 593b 0629 593d f0f3 e7bc
00000150: cd1f 0b3d baa8 e13c b39d b93c fe30 223d
00000160: 25a6 e73c eaa3 c7bc c06a 0bbd 64bd 723d
00000170: 6119 3d3d f247 58bd 819d 58bd 1549 853d
00000180: d26f 2e3d 7035 2f3d 2037 67bc de0a 9aba
00000190: 303b ec3c 1287 db3c 79b6 cebc 5cdf ebba
000001a0: 6ac5 a0bb b9c1 0cbd 711d 17bd a946 aa3c
000001b0: 31c0 493d 4270 523d 855f 48bc a0b5 6b3d
000001c0: b4aa fabc 0221 c23c 51ec 28bd 8c4b 7d3d
000001d0: 0f55 edbc aab1 b53d 2737 393c 1512 c83a
000001e0: f7c5 95bc d37e 0bbc 3e74 06bd 4f75 103c
000001f0: 0280 493d 4a98 ce3c d665 a0bc ecac 973c
00000200: 337f 94ba 09f3 8ebd d23c 0dbd 00d8 8c3d
00000210: 42c7 3a3d 6210 ea3b 390f ddbb dea3 57bd
00000220: 7fe2 3bbd a438 6b3d a72a cb3c 72ea 3bbc
00000230: 7f42 8bbd 544b 803b c12f 773d 6928 7ebd
00000240: cfdc 4ebd 253e 44bc 2e8a d8ba 58fb b33d
00000250: a0fd 5b3d abe4 9c3d 82bc 113c a240 0fbd
00000260: a752 6bbc cb86 28bc a07a 8ebb 7725 c8bc
00000270: 65ed 9dbc 7253 773d 8663 44bd f76f 1a3d
00000280: a66e 8abb b2a6 87bd 2333 9a3c b4e2 7a3d
00000290: 6ade a33c 3faf 033d a11c c8bb 20c3 0f3d
000002a0: 1edc a23d 6b34 b5bd fdc4 c63c 0cc8 24bd
000002b0: b685 04bd 36c8 c43c 4a7e 823d 0453 5b3c
000002c0: 3cd3 02bc 606b 80bc c578 3bbd 60db c23c
000002d0: ccef 683d bef3 4a3d 40c1 4abd ff70 a73d
000002e0: b2ed 4dbc 6684 083d 9c41 cd3b 7012 ac3c
000002f0: 9a2b 6ebd 6c69 433d 4854 f63c c066 713d
00000300: cc4b f33c 6103 2e3d a8a0 263d 02c0 27bc
00000310: ede4 69bd af81 7b3d 4bf1 17bd 2a58 c83c
00000320: 4ad4 62bd 664f 923d c9e5 bf3c 4ab0 7dbd
00000330: 08ee fa3c 7812 babb 1176 7f3d 6f5e d2bc
00000340: 9c4b 73bd 146b 423d 47ea 223d cc7c 983c
00000350: 4775 f0bc 362b 1d3d a795 b83d ce8b 4c3d
00000360: 7163 8f3d f782 74bd afe6 3ebd cc0d 8ebc
00000370: b1c3 12bd 1a60 cb3d a067 bbbc d8c8 59bd
00000380: 06e9 49bd e9a9 b0bc 8d1b 0c3d 45a4 133d
00000390: 75b8 4d3d 8d80 13bc 2df4 733d 3163 d3bc
000003a0: 52bc c63d b818 ecba 8f1a 83bd 349d 8b3c
000003b0: 85e7 5a3d 5107 333d 9f75 cfbd 2644 c5bc
000003c0: b002 cd3c 8021 bfba 4713 5bbd a8e4 3e3d
000003d0: f0d5 b93c 87d1 c53b fb78 283d 2e41 f1ba
000003e0: db8c f7bc 782b ef3c db4a 763d db94 95bb
000003f0: f565 a73b eb7f 573d d467 0dbd 386e d53b
-0.011262315 0.038265638 0.040906146 -0.037393816 0.011619848 0.058359284 0.07068598 -0.049158588
-0.029518388 0.03523407 0.036192194 0.0036769796 -0.038925126 0.062180918 -0.021068066 0.06451344
-0.058399502 -0.019454688 -0.005306283 0.08882042 0.08849106 0.09408638 -0.07838607 -0.05183065
0.05205852 0.031700034 -0.060818125 0.0028206222 0.02441582 0.06382503 0.0015554088 -0.006809062
0.02560535 0.04421592 -0.02286724 -0.035677955 -0.01154926 0.029022964 0.06555675 -0.0387869
0.03411355 -0.011427798 -0.034726035 0.05846039 0.0024099322 0.08949714 -0.040486064 -0.0060386616
-0.050474025 0.05047501 0.025258435 0.04212802 0.03464467 -0.027504817 0.05704534 -0.02172751
0.018008454 0.00084287685 -0.06491411 -0.011207437 0.021576071 0.07757613 -0.00695031 0.050738912
0.010277814 -0.01586955 -0.04090144 0.013272799 0.04179343 -0.06108498 -0.005932002 0.030907603
0.038480077 0.007820833 -0.08981934 0.069184855 0.029197609 0.011168531 -0.043878328 0.034765217
0.03625379 0.0033128676 0.05301764 -0.02831456 0.033965874 0.027546275 0.022658205 0.039597504
0.028277466 -0.024370153 -0.03403735 0.05926265 0.04616678 -0.052802987 -0.052884582 0.0650808
0.04258711 0.04277557 -0.014112264 -0.0011752506 0.028836817 0.026797805 -0.025233494 -0.0017995643
-0.004906346 -0.034364436 -0.036893312 0.020785647 0.049255554 0.05137659 -0.012229805 0.057546258
-0.030598976 0.02369738 -0.041240994 0.061839625 -0.028971223 0.08871777 0.011304653 0.0015264178
-0.018282874 -0.008514124 -0.0328257 0.008817031 0.049194343 0.025219101 -0.01957981 0.018515073
-0.0011329412 -0.06979949 -0.03448183 0.06877136 0.045600183 0.0071430663 -0.0067461994 -0.05264651
-0.0458703 0.057427064 0.024800612 -0.01146947 -0.067997925 0.00391523 0.060348276 -0.062050257
-0.05050355 -0.011977707 -0.0016520673 0.087881744 0.053708673 0.076608025 0.008895041 -0.034973748
-0.014362968 -0.010286043 -0.004348114 -0.024431927 -0.019278238 0.060382314 -0.047946475 0.037704434
-0.004224616 -0.066235915 0.018823212 0.061251357 0.020003516 0.03214955 -0.0061069285 0.035098195
0.0795214 -0.088478886 0.024263853 -0.040229842 -0.03235408 0.02402125 0.06371744 0.013386492
-0.0079849325 -0.0156762 -0.04576947 0.023786247 0.056869313 0.049548857 -0.049500704 0.08175849
-0.012568878 0.03332939 0.0062639248 0.021004885 -0.05814705 0.04770796 0.030069485 0.05893588
0.029699229 0.04248369 0.040680557 -0.010238649 -0.057103086 0.061402973 -0.03709535 0.024456102
-0.055378236 0.0714405 0.023425 -0.0619357 0.03063108 -0.005678471 0.062368456 -0.025679795
-0.05939828 0.0474654 0.039774206 0.018614195 -0.029352797 0.038371287 0.09012919 0.049938016
0.07001389 -0.05969521 -0.046606716 -0.017340563 -0.035831157 0.09930439 -0.02287656 -0.053170055
-0.049294494 -0.021565394 0.034205962 0.03604533 0.05022474 -0.009002817 0.059559036 -0.025804134
0.09703888 -0.0018012738 -0.0640155 0.017042734 0.05344345 0.04370815 -0.10129856 -0.024080347
0.025025696 -0.0014582127 -0.05348518 0.046604782 0.022685021 0.0060369405 0.041131 -0.0018406266
-0.030218532 0.029195532 0.06012998 -0.004564864 0.00510859 0.052612226 -0.034522846 0.0065133832

fc1.bias f4 [7]
00000000: ad5a 70bd 9436 dcbc 0cf8 903d a172 613c
00000010: 6dc5 bbbb 36a4 9cbd 798f b5bb
-0.058680225 -0.026881494 0.07078561 0.01376024 -0.005730322 -0.07648508 -0.005540785
