skin_lesion_model.pth (torch, 408004 bytes, 10 tensors)

conv1.weight f4 [16, 3, 3, 3]
0	0x3d931a12	0.07182707
1	0x3d33d3bf	0.04390311
2	0xbe3816b5	-0.17977412
3	0xbe04df00	-0.12975693
4	0x3d6073d5	0.054797966
5	0x3d94bd6d	0.072626926
6	0xbd3325d4	-0.043737248
7	0xbd0d2cdf	-0.03446662
8	0x3d2d6ea0	0.04234183
9	0xbe5b5269	-0.21418156
10	0xbcb1f949	-0.021725314
11	0xbe5fbae0	-0.21848631
12	0x3d5decb7	0.054180827
13	0xbea2635f	-0.3171644
14	0xbe6a1119	-0.22858085
15	0xbe68ccee	-0.22734424
16	0xbdbd3a82	-0.09239675
17	0x3c559d8c	0.01303805
18	0x3e74cdb7	0.23906599
19	0xbd859d50	-0.065241456
20	0x3e4478e0	0.19186735
21	0x3e986492	0.2976423
22	0x3d76dbca	0.0602682
23	0xbcb4a3be	-0.022050735
24	0x3db55f87	0.08856111
25	0x3e992f69	0.29918984
26	0x3eb9525d	0.3619565
27	0x3dacb9ab	0.08433851
28	0xbdb203c2	-0.08692123
29	0xbe3401eb	-0.17578857
30	0x3e144bbf	0.1448202
31	0x3e8566f4	0.2605511
32	0xbc1ff11d	-0.009762076
33	0x3dd63669	0.10459597
34	0x3e23bd21	0.15990116
35	0x3d089833	0.033348273
36	0xbe0709c9	-0.13187326
37	0x3dfea5d3	0.12433972
38	0x3dcefb90	0.101065755
39	0x3ddcf901	0.10789681
40	0xbe00ecb1	-0.1259029
41	0x3dabf9d8	0.08397263
42	0xbd5ed93e	-0.054406397
43	0x3d010df6	0.031507455
44	0xbd969fde	-0.07354711
45	0xbe3d8b74	-0.18510228
46	0xbe415d64	-0.18883282
47	0x3d5ce442	0.05392862
48	0xbe9442b8	-0.28957152
49	0xbe4a6c2d	-0.19767828
50	0xbe8d4b03	-0.27596292
51	0x3d53a521	0.05167115
52	0xbe4c440b	-0.19947831
53	0xbe227936	-0.15866551
54	0xbe57fbe9	-0.2109219
55	0xbe9fb0b0	-0.3118949
56	0xbe8c95cd	-0.2745804
57	0x3e405ba6	0.18784961
58	0xbe933fce	-0.28759617
59	0xbe46d61e	-0.19417617
60	0xbdf0586b	-0.117356144
61	0xbe1ddc3f	-0.15416048
62	0xbe37b780	-0.17941093
63	0x3cc99f09	0.024611967
64	0x3d42a7a5	0.04752316
65	0xbe7a305e	-0.24432513
66	0xbe730ace	-0.2373459
67	0xbd86dfe4	-0.065856725
68	0xbe94971f	-0.29021546
69	0x3d9e2128	0.07721168
70	0xbe363fac	-0.17797726
71	0xbe8efcbd	-0.279272
72	0x3e67172d	0.22567435
73	0x3dbca11c	0.09210417
74	0x3c245b4d	0.010031533
75	0xbdb5d23f	-0.08877992
76	0x3e3ebcc3	0.18626694
77	0xbe11dc45	-0.14244182
78	0x3c8d7382	0.017266992
79	0xbe3475bc	-0.17623037
80	0xbe1c7c48	-0.15281785
81	0x3de0e23b	0.1098065
82	0x3e7ebf16	0.24877581
83	0xbd2972b4	-0.041369155
84	0x3dc057b4	0.09391728
85	0x3e0afaf4	0.13572294
86	0xbdd0cf52	-0.10195793
87	0xbdd51ed2	-0.10406269
88	0x3db6de1a	0.08929081
89	0x3ca96f70	0.02068302
90	0xbd26912e	-0.040665798
91	0x3dc937c0	0.098250866
92	0xbd1e3e3c	-0.03863357
93	0x3d824385	0.063605346
94	0x3e068663	0.13137202
95	0xbd9c0c68	-0.07619554
96	0x3e835c50	0.25656366
97	0x3dd9494c	0.106096834
98	0x3dbeb7e5	0.09312419
99	0xbe019846	-0.12655744
100	0xbe98919c	-0.2979859
101	0xbddbf568	-0.10740167
102	0xbdabaddd	-0.08382771
103	0xbeb16c81	-0.34653094
104	0xbc8b0009	-0.01696779
105	0x3e5c9aca	0.21543422
106	0xbe26fcb9	-0.16307344
107	0xbe1a0d17	-0.15044056
108	0x3d28e2a7	0.041231778
109	0x3d1f660f	0.03891569
110	0x3d8321f2	0.06402959
111	0xbd012dd2	-0.03153784
112	0x3da6995d	0.081347205
113	0xbe5ac489	-0.21364035
114	0x3e441d7d	0.19151874
115	0xbdd7cad3	-0.105367325
116	0xbda78700	-0.08180046
117	0x3c644fcd	0.013935042
118	0xbe1eaf55	-0.15496571
119	0xbe2b653f	-0.16737841
120	0x3e9f3e3f	0.31102178
121	0xbe0e334c	-0.13886756
122	0x3e2f760b	0.17134874
123	0x3edbb031	0.4290786
124	0x3ea2c1ba	0.31788427
125	0x3ddcf93b	0.107897244
126	0xbddcd5a7	-0.107829385
127	0xbe5f24e4	-0.21791416
128	0xbd67c169	-0.056580935
129	0xbe304296	-0.172129
130	0xbdf97bb8	-0.121818006
131	0xbd35e4fa	-0.044407822
132	0x3e00d0d5	0.12579663
133	0xbcc842f0	-0.02444598
134	0xbe22ffa3	-0.1591783
135	0x3e65ac38	0.22428977
136	0x3d64c15a	0.055848457
137	0xbe140284	-0.14454085
138	0xbd19d765	-0.03755893
139	0xbe1b7113	-0.15179853
140	0xbd904e5d	-0.070461966
141	0x3c9fced3	0.019507801
142	0xbe0543ac	-0.13014096
143	0xbd7c0b7a	-0.061534382
144	0x3e3f8559	0.18703212
145	0xbe0eb96c	-0.1393792
146	0xbe50ac51	-0.20378233
147	0x3df3426d	0.11877904
148	0xbe444cec	-0.19169968
149	0x3d0b1408	0.03395465
150	0x3c9fb8ce	0.019497301
151	0x3c6cd85c	0.014455881
152	0x3dcc1baa	0.09966214
153	0x3ddf9ec4	0.10918954
154	0x3e19f987	0.15036593
155	0xbe3608ee	-0.17776844
156	0x3c4e7905	0.0126020955
157	0x3e05b168	0.13055956
158	0x3e0c0710	0.13674569
159	0x3e1f2ac3	0.15543656
160	0xbe044dd6	-0.12920317
161	0xbe7d1177	-0.24713694
162	0xbc902f94	-0.017600812
163	0x3df7151a	0.12064572
164	0xbd36a297	-0.04458865
165	0xbda813ae	-0.082068786
166	0xbce55b05	-0.027997503
167	0x3db979fc	0.0905647
168	0x3e340658	0.17580545
169	0xbd85e9d4	-0.0653874
170	0xbd550f58	-0.052016586
171	0x3d59be3a	0.05315993
172	0xbb2d29d3	-0.0026422634
173	0x3d8cab1d	0.06868575
174	0xbda10abc	-0.078633755
175	0xbeb2ded9	-0.34935644
176	0xbe276251	-0.16346098
177	0xbe8fddcf	-0.28098914
178	0xbea06efb	-0.3133467
179	0xbd4ffa47	-0.050775792
180	0x3e166e80	0.1469059
181	0x3df20337	0.118170194
182	0x3e4c21e3	0.19934802
183	0xbe261577	-0.16219126
184	0x3e40da19	0.18833198
185	0x3d82d7e0	0.06388831
186	0xbe0df2ce	-0.13862154
187	0x3d250000	0.040283203
188	0x3e53b4d9	0.20674457
189	0x3d3e18ef	0.046410497
190	0x3e2628fe	0.16226575
191	0x3dcecb2a	0.10097344
192	0xbe48ec0a	-0.19621292
193	0xbe42b772	-0.19015291
194	0x3e1a4670	0.15065932
195	0x3d31836e	0.04333823
196	0xbd5c7f54	-0.053832367
197	0xbde950d8	-0.11392373
198	0x3e86e477	0.2634618
199	0x3e93fced	0.28903905
200	0x3d26db14	0.040736273
201	0xbe06920c	-0.1314165
202	0x3d00050a	0.031254806
203	0xbdca442c	-0.09876284
204	0x3d84415e	0.0645778
205	0x3b8a3db0	0.0042187795
206	0xbecf2fb0	-0.4046607
207	0x3e9d63ae	0.30740112
208	0x3e92ff32	0.28710324
209	0xbd8ca94f	-0.068682306
210	0x3e843bc6	0.25826854
211	0x3ceed1c0	0.029152751
212	0xbe0a6573	-0.13515262
213	0x3e57f6be	0.21090218
214	0xbeb3e74b	-0.351374
215	0xbf03294b	-0.51234883
216	0xbc29453e	-0.01033145
217	0x3da81f0a	0.08209045
218	0x3d37f2c4	0.044909254
219	0xbe0f7bf4	-0.14012128
220	0x3dc61896	0.09672658
221	0xbd81cb56	-0.063376114
222	0xbdd9d021	-0.106354006
223	0x3d07ef58	0.03318724
224	0xbd1dfe91	-0.03857285
225	0x3e1eef21	0.15520908
226	0x3e9b291e	0.30304807
227	0x3e8afabf	0.2714443
228	0x39ff50d6	0.00048697618
229	0x3e735f2a	0.23766771
230	0x3c22f099	0.009945058
231	0xbc78a69d	-0.015176442
232	0x3e2f3fe7	0.1711422
233	0x3e005bd8	0.12535036
234	0xbe7921a4	-0.24329239
235	0xbe973858	-0.29535174
236	0xbe52c385	-0.20582397
237	0x3a194239	0.0005846355
238	0xbe18af58	-0.14910638
239	0xbe8e7a60	-0.2782774
240	0x3d8fd7f8	0.07023615
241	0xbe88bc67	-0.2670624
242	0x3c0a2c3d	0.008433399
243	0x3cdf6f13	0.027274644
244	0xbc7b87f1	-0.015352235
245	0x3c816b4c	0.015798233
246	0x3dd36b0a	0.103231505
247	0x3d706213	0.05868728
248	0x3e35bf2b	0.17748706
249	0xbe153cb7	-0.14573942
250	0xbda03ecd	-0.07824478
251	0x3df62bae	0.1202005
252	0xbdc9ac87	-0.0984736
253	0xbe2b5922	-0.1673322
254	0xbd09e697	-0.033667173
255	0xbd24f138	-0.040269107

conv1.bias f4 [16]
0	0x3c7dea42	0.015497746
1	0xbdce5429	-0.10074646
2	0xbd224d18	-0.039624304
3	0xbe03c9dd	-0.12869973
4	0x3dfae47c	0.12250611
5	0x3e7a6edc	0.24456352
6	0x3d1490bc	0.036270842
7	0xbbb3e2af	-0.0054896693
8	0x3db554b7	0.08854049
9	0x3de02006	0.10943608
10	0xbdfc54bd	-0.1232085
11	0xbe13e9a1	-0.14444591
12	0xbdf5344c	-0.119728655
13	0xbe8e9f32	-0.2785583
14	0xbe3e66d7	-0.18593918
15	0x3e316fcd	0.17327805

conv2.weight f4 [32, 16, 3, 3]
0	0x3dd7f880	0.105454445
1	0x3ae9d251	0.0017839168
2	0xbcfb7199	-0.030693816
3	0x3e233f8b	0.15942208
4	0x3de5298e	0.111895666
5	0x3b836faf	0.0040111165
6	0x3e063a5f	0.13108204
7	0x3dc41d63	0.095759176
8	0xbdcb5cc6	-0.099298045
9	0x3dd078a6	0.10179262
10	0xbcb84ac7	-0.022496594
11	0xbcc7087f	-0.024296043
12	0xbcedea70	-0.029042453
13	0xbdaf34b9	-0.08554978
14	0xbd2b1a54	-0.041773155
15	0xbd61228c	-0.054964587
16	0xbe3413b9	-0.17585649
17	0xbe0e43c1	-0.13893034
18	0xbd9f7f2f	-0.0778793
19	0xbd5eb7d2	-0.054374523
20	0x3d5b18ca	0.053490438
21	0x3c112b66	0.008860445
22	0xbd7651ab	-0.06013648
23	0xbe08428b	-0.13306634
24	0x3d49ca61	0.04926527
25	0x3ded56a6	0.115887925
26	0xbdb8182b	-0.08988985
27	0x3d04dfc1	0.03243995
28	0xbcca9638	-0.024729833
29	0xbd241d66	-0.0400671
30	0xbdc50d8d	-0.09621725
31	0xbd412da0	-0.047162652
32	0x3d2b6134	0.041840747
33	0xbdbe314c	-0.092867464
34	0xbdc1f54e	-0.09470616
35	0xbdc44380	-0.09583187
36	0xbe057a5a	-0.13034955
37	0xbd08906f	-0.033340868
38	0xbd20a5f7	-0.039220776
39	0x3d0ec7e0	0.034858584
40	0xbdcf963e	-0.10136078
41	0x3e0360c1	0.12829877
42	0xbd8bc4a8	-0.068246186
43	0xbdf315d0	-0.11869395
44	0x3e05f932	0.13083342
45	0xbddfdfb7	-0.10931342
46	0xbddb97e4	-0.1072233
47	0xbd98f48a	-0.07468517
48	0xbd2f83c5	-0.042850275
49	0xbcfe67d3	-0.031055367
50	0xbdaddc79	-0.084893174
51	0xbd248942	-0.04016996
52	0xbd744c9f	-0.059643384
53	0xbb57f7b4	-0.003295404
54	0x3e33f82b	0.17575137
55	0x3e20a240	0.15686893
56	0x3d22d4c3	0.039753687
57	0x3e388d2e	0.18022606
58	0x3d897829	0.06712372
59	0xbd3272e1	-0.04356659
60	0x3dd96ea1	0.10616804
61	0x3dea037d	0.114264466
62	0xbdf5d93b	-0.12004324
63	0x3d6e4022	0.05816663
64	0xbd201da3	-0.039090764
65	0x3d8bb4c1	0.068215854
66	0xbdc5fcc1	-0.096673496
67	0xbddbff54	-0.10742059
68	0xba9e2203	-0.001206458
69	0x3caffeaa	0.021483738
70	0x3c37b588	0.011212714
71	0x3c059ab9	0.008154565
72	0xbde7a6e0	-0.11311126
73	0xbcf99a23	-0.030469006
74	0x3bed10a2	0.007234649
75	0xbda539f7	-0.080676965
76	0xbe1b8975	-0.15189154
77	0xbdcc24d4	-0.09967962
78	0xbe28e7c4	-0.16494662
79	0xbe1060da	-0.14099446
80	0xbde32a3a	-0.110920385
81	0xbcd28d1f	-0.025702057
82	0x3db24e5f	0.08706354
83	0xbd6bd7b5	-0.05757876
84	0x3c89aaac	0.016805016
85	0x3d669303	0.056292545
86	0x3d65579a	0.055991746
87	0x3c9bf9a3	0.019039935
88	0xbb9bb111	-0.0047513326
89	0x3bd8a8d8	0.0066119246
90	0x3e5cdee5	0.21569403
91	0x3e27b81b	0.16378824
92	0x3da48a7a	0.08034225
93	0x3e68963d	0.22713561
94	0x3e0e7209	0.13910688
95	0x3d24860c	0.0401669
96	0x3cdb5821	0.026775422
97	0x3d0ff67d	0.03514718
98	0x3ced0739	0.028934108
99	0xbb0e3fac	-0.0021705432
100	0x3c8e0a21	0.017338814
101	0x3b84dcc5	0.004054638
102	0xbddac580	-0.106822014
103	0x3b16d204	0.0023013363
104	0xbc08c300	-0.008347273
105	0xbcb97aad	-0.022641504
106	0xbd93ae6e	-0.07211004
107	0x3c9ff151	0.019524248
108	0x3d37b81b	0.04485331
109	0x3a61f5fc	0.00086197234
110	0x3e07dd24	0.13267952
111	0x3d92c34b	0.071661554
112	0x3d2ffc5d	0.04296528
113	0xbd3d342a	-0.046192326
114	0x3daf8aef	0.08571421
115	0x3df3dca6	0.1190732
116	0xbd23cf66	-0.039992712
117	0x3e238126	0.15967235
118	0x3e26129c	0.16218036
119	0x3e2148f3	0.15750484
120	0x3e675edb	0.22594778
121	0x3e246e50	0.16057706
122	0x3dd4f2f3	0.103979014
123	0x3d9d349c	0.0767605
124	0x3dc2c93a	0.09511037
125	0x3d5e7a97	0.05431613
126	0x3d2bc628	0.041937023
127	0x3df4faa3	0.11961868
128	0x3e44431f	0.1916623
129	0xbdf38a98	-0.11891669
130	0x3d3b2d4d	0.0456975
131	0x3d04c4f9	0.03241441
132	0x3dd53ebb	0.104123555
133	0x3d3f4891	0.046700064
134	0x3e1e2214	0.15442687
135	0x3d464f8e	0.048415713
136	0x3c7f10d1	0.015567974
137	0x3b817b8e	0.0039514964
138	0x3d7c665f	0.061621066
139	0xbcfa117d	-0.030525917
140	0xbcf6ee36	-0.030142885
141	0xbdb9c54c	-0.090708345
142	0xbe0763aa	-0.13221613
143	0x3d1506c7	0.036383417
144	0xbda2d7e0	-0.07951331
145	0xbe2a89e2	-0.1665416
146	0xbe052b7d	-0.1300487
147	0xbd02f330	-0.031970203
148	0xbe4c602a	-0.19958559
149	0xbe1a38a3	-0.15060668
150	0xbd0d8bf4	-0.034557298
151	0xbd0d6c4f	-0.03452712
152	0xbd779800	-0.060447693
153	0x3da26e24	0.07931164
154	0xbbda659e	-0.0066649457
155	0x3cb32ca6	0.021871876
156	0x3dae14b2	0.08500041
157	0xbc439ca3	-0.011939201
158	0x3d8289d1	0.06373943
159	0xbc3de178	-0.0115894005
160	0x3cccbdfd	0.024992937
161	0xbd12ab83	-0.035808098
162	0xbcb673af	-0.02227196
163	0x3de000e9	0.109376736
164	0x3d9f3b94	0.077750355
165	0x3da0d203	0.078525566
166	0x3e0094e1	0.12556793
167	0x3dea251c	0.11432859
168	0x3c744957	0.014910064
169	0x3dde5084	0.10855201
170	0x3d54fb47	0.05199745
171	0x3de20c42	0.11037494
172	0x3d95c1a2	0.07312323
173	0xba4f7fdf	-0.00079154776
174	0x3cf88ef8	0.03034161
175	0xbcb82e23	-0.022482937
176	0xbdf0ecc9	-0.11763913
177	0xba0f02ae	-0.00054554164
178	0x3c36e872	0.011163818
179	0xbd8b2d93	-0.06795802
180	0xbdf2f80f	-0.1186372
181	0xbea7c562	-0.3276778
182	0xbec06e92	-0.37584358
183	0xbdd84e10	-0.10561764
184	0xbe6fca75	-0.23417075
185	0xbe8823b8	-0.2658975
186	0xbce4e658	-0.027941868
187	0xbe661868	-0.22470248
188	0xbe5d0e3a	-0.21587458
189	0x3b3ba20e	0.0028630528
190	0xbd1ef987	-0.038812187
191	0xbdb8294b	-0.08992251
192	0xbcadf6ca	-0.021235842
193	0x3baa3900	0.005194783
194	0x3b6bdd03	0.0035989888
195	0xbdde0579	-0.108408876
196	0xbd58c2b6	-0.052920066
197	0xbe042a28	-0.12906706
198	0xbc5f3c06	-0.013625151
199	0xbd10076d	-0.03516333
200	0x3da38788	0.07984835
201	0xbd9671f6	-0.07345955
202	0xbab35602	-0.0013682249
203	0x3de6c4a3	0.11267974
204	0x3d534297	0.051577177
205	0x3c79eb07	0.015253789
206	0x3daa1d45	0.08306364
207	0xbcd648a7	-0.02615769
208	0xbe1f7151	-0.1557057
209	0xbd5c1639	-0.05373213
210	0xbdcc16d5	-0.09965292
211	0xbe8c364f	-0.27385184
212	0xbede9ec4	-0.43480504
213	0xbe6d5ef7	-0.23180757
214	0xbf1fae46	-0.62375295
215	0xbf0d3998	-0.55166006
216	0xbdddce3e	-0.10830353
217	0xbdec79b7	-0.11546653
218	0xbde3fc79	-0.1113214
219	0xbe311747	-0.17294036
220	0xbe58bb31	-0.21165158
221	0xbe3eaff9	-0.18621816
222	0xbdca599d	-0.098803736
223	0xbe2e5325	-0.17023905
224	0xbe0e0ba0	-0.13871622
225	0xbd9133a8	-0.07089931
226	0x3db78e80	0.089627266
227	0x3d4489c7	0.047982957
228	0x3da01332	0.07816161
229	0xbd3b46a9	-0.045721684
230	0x3d7f4566	0.062322043
231	0xbbfbcefb	-0.007684586
232	0x3d91acbe	0.07113026
233	0x3df0d75e	0.11759828
234	0x3da69f03	0.08135798
235	0x3d6e74ac	0.058216736
236	0x3e0e1d65	0.138784
237	0x3d5a98a1	0.053368215
238	0x3c2d61f0	0.010582432
239	0xbce642c7	-0.028108014
240	0x3e2f34a2	0.17109922
241	0x3d8a50a7	0.067536645
242	0x3d122d4e	0.035687737
243	0x3d0746df	0.033026572
244	0x3ca51334	0.020150758
245	0xbe0c1976	-0.13681588
246	0xbd5fb9a4	-0.0546204
247	0x3bbaf38f	0.005705304
248	0xbdb97e8e	-0.090573415
249	0xbe27b953	-0.1637929
250	0xbd2aa255	-0.04165872
251	0x3cf9fee6	0.030517053
252	0x3d75b6e8	0.059988886
253	0x3cc3cce9	0.02390142
254	0x3dec4990	0.115374684
255	0x3c9d732e	0.019219961

conv2.bias f4 [32]
0	0xbddf42e6	-0.10901432
1	0xbd5ec246	-0.054384492
2	0xbe0ee1b3	-0.13953285
3	0xbd10bc01	-0.035335544
4	0xbd90c2ce	-0.07068406
5	0xbd92a385	-0.07160095
6	0x3c6e5897	0.014547489
7	0xbe022ace	-0.12711641
8	0x3b829964	0.0039855707
9	0x3ca40389	0.020021217
10	0xbe382319	-0.17982139
11	0x3dc3fc82	0.095696464
12	0xbcb78542	-0.02240241
13	0x3e600d4c	0.21880072
14	0x3e156e21	0.14592792
15	0x3d30f50d	0.04320245
16	0x3dbbbb06	0.09166531
17	0x3e2e2db1	0.17009617
18	0x3d5e7aa7	0.05431619
19	0xbd9b5fc6	-0.07586627
20	0x3e49ef7c	0.19720262
21	0xbe155d69	-0.14586414
22	0xbc6eb41e	-0.0145693105
23	0x3e12f004	0.14349371
24	0x3d557f13	0.05212314
25	0x3e5e1723	0.21688513
26	0xbd37988d	-0.044823218
27	0xbe00d432	-0.12580946
28	0xbcfcfc5d	-0.030882055
29	0x3e2c8eed	0.16851397
30	0xbe23596d	-0.15952082
31	0xbd899118	-0.067171276

conv3.weight f4 [64, 32, 3, 3]
0	0xbddf8328	-0.10913688
1	0xbe546666	-0.20742187
2	0xbe97e099	-0.29663542
3	0xbd99922c	-0.07498583
4	0xbe6b0297	-0.22950207
5	0xbec7fa77	-0.39058277
6	0x3d61fa5f	0.055170413
7	0xbdbdcbd5	-0.092673935
8	0xbea1ee91	-0.31627324
9	0x3d2b4bae	0.04182022
10	0x3d43e6de	0.047827594
11	0xbd34b5e8	-0.04411879
12	0xbd58058d	-0.05273967
13	0x3dd09484	0.10184577
14	0xbe0176ee	-0.12643024
15	0x3d235918	0.03987989
16	0x3d832b4e	0.06404744
17	0xbbc0fc3a	-0.0058894427
18	0xbd9a7711	-0.07542241
19	0xbc2d4bc0	-0.010577142
20	0xbde3c786	-0.111220405
21	0xbe4b8f4c	-0.19878882
22	0xbdb3dd67	-0.087824635
23	0xbda8b705	-0.08238033
24	0x3d733e0a	0.059385337
25	0xbdd15aae	-0.10222374
26	0xbe3144f8	-0.17311466
27	0xbd9ef5de	-0.07761739
28	0x3b18042a	0.0023195841
29	0x3d6b45df	0.05743968
30	0x3d3af9d7	0.045648422
31	0xbd835efb	-0.064146005
32	0xbc812162	-0.015762988
33	0xbcbb50f9	-0.02286576
34	0xbd5e9e26	-0.05435004
35	0xbb9a4612	-0.00470806
36	0xbc05a636	-0.008157304
37	0xbdc053f1	-0.093910106
38	0x3ced51da	0.028969694
39	0xbe3af540	-0.18257618
40	0xbd408ed3	-0.047011208
41	0xbde55161	-0.111971624
42	0xbe05ec91	-0.13078524
43	0xbe0a0eb4	-0.13482171
44	0xbddb1bc0	-0.10698652
45	0xbd9053a1	-0.07047201
46	0xbda8eac2	-0.082479015
47	0xbc2da66b	-0.010598759
48	0xbd00862e	-0.031377964
49	0xbe09621b	-0.1341633
50	0xbe1ac8aa	-0.1511561
51	0x3df53f17	0.11974924
52	0xbd8e6549	-0.06952912
53	0xbe19d2fa	-0.15021887
54	0xbd93e6fa	-0.0722179
55	0x3dffd7cc	0.12492332
56	0x3da1e786	0.07905488
57	0x3d7c4649	0.061590467
58	0x3d22cf90	0.03974873
59	0xbd02e475	-0.031956155
60	0xbdeb9b26	-0.115042016
61	0xbdd909bf	-0.10597562
62	0xbd3d12d4	-0.046160534
63	0x3e0f6d2c	0.1400649
64	0x3e25ce40	0.1619196
65	0x3c784bb1	0.015154765
66	0x3dca92d8	0.098912895
67	0xbc2cd4e7	-0.010548807
68	0xbd9230e4	-0.071382314
69	0x3e12e86c	0.14346474
70	0x3dad21dc	0.08453724
71	0xbd2f3238	-0.0427725
72	0xbd491ccf	-0.04909974
73	0x3d9f3814	0.07774368
74	0xbca2cf3b	-0.019874206
75	0xbdb32f08	-0.08749205
76	0x3c7d8eae	0.015475912
77	0xbd820dd8	-0.06350297
78	0xbd96c34b	-0.07361468
79	0x3dfff5b1	0.12498034
80	0xbcd6bbc2	-0.026212577
81	0x3d3d4dbc	0.04621671
82	0xbd6db711	-0.058035914
83	0x3c7792bf	0.015110671
84	0xbd933d35	-0.07189409
85	0x3cf7a39a	0.030229378
86	0x3d985f87	0.074400954
87	0xbe6e9916	-0.23300585
88	0xbde8201b	-0.11334249
89	0xbda32f28	-0.07967979
90	0x3cdc33d8	0.02688019
91	0x3df2ab6e	0.11849104
92	0x3ce5e2f4	0.028062321
93	0xbc8e12c2	-0.017342929
94	0x3d3ff95e	0.046868674
95	0xbd68ffc1	-0.05688453
96	0x3d1d5e55	0.03842004
97	0x3d164332	0.036685176
98	0xbd04515f	-0.032304164
99	0x3e157a20	0.14597368
100	0x3e758afd	0.23978801
101	0x3dad3d10	0.084589124
102	0x3c972863	0.018451875
103	0x3dca329c	0.09872934
104	0x3def11ec	0.1167334
105	0xbd6192ec	-0.055071756
106	0x3d9e6629	0.07734329
107	0x3c14fba0	0.009093195
108	0xbd10d2cd	-0.035357285
109	0xbd8537c0	-0.06504774
110	0xbc59da9c	-0.013296749
111	0xbda39002	-0.07986452
112	0xbda59a3c	-0.080860585
113	0xbd706ca1	-0.058697347
114	0xbdb75298	-0.089513004
115	0xbdc7fd04	-0.09765056
116	0xbda7702a	-0.081756905
117	0x3d863bdd	0.06554387
118	0x3dbb074a	0.0913225
119	0x3d144b4c	0.03620462
120	0x3c778f16	0.015109798
121	0x3d8bab26	0.06819753
122	0x3d56abbe	0.05240988
123	0xbcaba5ff	-0.020953177
124	0x3db48a09	0.088153906
125	0xbd0980f2	-0.033570237
126	0xbdd1f8a6	-0.10252504
127	0xbdf526d5	-0.11970297
128	0xbd84bc3d	-0.06481216
129	0xbd0b0bdf	-0.033946868
130	0xbde470c3	-0.1115432
131	0xbd7f7d38	-0.062375277
132	0xbd51fd77	-0.051267114
133	0xbd78c1d6	-0.06073173
134	0xbe0d17da	-0.1377863
135	0x3cbb6433	0.022874927
136	0x3cb6e54b	0.022326132
137	0x3e144e0c	0.14482898
138	0xbdb9d625	-0.09074048
139	0xbd9079b2	-0.070544615
140	0xbceedf07	-0.029159082
141	0xbdf786aa	-0.12086232
142	0xbcd00d62	-0.025397006
143	0x3a010c52	0.00049227953
144	0x3cc3a1e5	0.023880908
145	0x3cb9e1b1	0.022690626
146	0x3db57eb5	0.08862058
147	0xbedc7261	-0.43056014
148	0x3d7f1ed7	0.06228527
149	0xbeb55742	-0.35418135
150	0xbe27d277	-0.1638888
151	0x3da6690d	0.081255056
152	0xbdf272c0	-0.11838293
153	0x3d27f167	0.041001704
154	0xbd10f687	-0.035391357
155	0xbd0b0403	-0.033939373
156	0x3ddd60bb	0.108094655
157	0x3d14f824	0.036369458
158	0xbe032d90	-0.1281035
159	0x3d8dc335	0.069219984
160	0xbd429d7f	-0.04751348
161	0xbc93f3a3	-0.018060511
162	0xbdadcf1a	-0.08486767
163	0xbdbf1f9e	-0.093322024
164	0xbdb8954d	-0.09012852
165	0x3d93dd97	0.07219999
166	0xbdbd391a	-0.09239407
167	0xbe18dfc7	-0.14929114
168	0x3a863f79	0.0010242305
169	0xbcbb0867	-0.022831155
170	0xbdf6776f	-0.12034499
171	0xbdec8157	-0.11548107
172	0xbde48325	-0.11157826
173	0xbd6a101c	-0.05714427
174	0xbe5e26c0	-0.2169447
175	0xbe02ca6e	-0.12772533
176	0xbd909c55	-0.07061068
177	0xbe3e8f31	-0.1860931
178	0xbda01491	-0.07816423
179	0xbccae0c2	-0.024765376
180	0xbcc521f7	-0.024064047
181	0x3c46512a	0.012104312
182	0x3e092e32	0.13396528
183	0xbcc4f3d1	-0.024042042
184	0xbb2b4e7b	-0.0026139307
185	0x3d607676	0.054800473
186	0x3d379673	0.044821214
187	0x3c93cb06	0.018041145
188	0x3d841d1d	0.064508654
189	0xbc891b37	-0.01673661
190	0xbdd8c82e	-0.10585056
191	0x3d0af079	0.03392074
192	0xbc05e4de	-0.008172242
193	0xbd2e4024	-0.042541638
194	0xbc9db21e	-0.019249972
195	0x3e446682	0.19179729
196	0x3e27418a	0.16333595
197	0xbd3daaad	-0.046305347
198	0xbe1c84b4	-0.15284997
199	0xbdae07eb	-0.08497604
200	0xbd9df599	-0.0771286
201	0xbe4c95af	-0.19978975
202	0xbe18077c	-0.14846605
203	0xbd753dde	-0.059873454
204	0xbe45d019	-0.19317664
205	0xbe3cf7b9	-0.18453874
206	0x3ce93c42	0.028471116
207	0xbda531a1	-0.080661066
208	0xbe1fb0f6	-0.15594849
209	0xbe3f1228	-0.1865927
210	0xbcafff26	-0.021483969
211	0xbd7407c2	-0.05957771
212	0xbe77c732	-0.2419708
213	0xbcce9108	-0.02521564
214	0xbdc716b2	-0.09721126
215	0xbe5feeda	-0.21868458
216	0xbe0f0032	-0.13964918
217	0xbd00c7f4	-0.03144069
218	0x3d173893	0.036919188
219	0xbe0a73ce	-0.13520738
220	0xbdb38699	-0.08765907
221	0xbdb8db87	-0.090262465
222	0xbe20fc63	-0.15721278
223	0xbcbe3e4c	-0.023223065
224	0xbe0c3847	-0.13693343
225	0x3e0f9403	0.14021306
226	0x3d7cab88	0.061687022
227	0x3dc531a6	0.0962861
228	0x3e204cc1	0.1565428
229	0x3e08a73c	0.13345045
230	0xbbb61917	-0.00555719
231	0x3e0f0a75	0.13968833
232	0x3e1cb8ce	0.15304872
233	0x3bb05f62	0.0053824643
234	0x3d8024b5	0.06257001
235	0x3d8f59a4	0.069995195
236	0xbca06310	-0.019578487
237	0x3c0b7155	0.008510907
238	0xbda88f6e	-0.08230482
239	0x3b83fd35	0.0040279874
240	0xbd148f99	-0.036269758
241	0x3bd5de83	0.0065267696
242	0x3c3cbfe0	0.011520356
243	0x3ddb4daf	0.10708176
244	0x3d58ecba	0.052960135
245	0xbe05be08	-0.13060772
246	0x3e1b120b	0.15143602
247	0xbd087b7a	-0.03332088
248	0xbd008c7f	-0.031383988
249	0x3e3d5de9	0.18492855
250	0xbe270820	-0.16311693
251	0xbe1b73f9	-0.15180959
252	0x3e08a410	0.13343835
253	0x3e316487	0.17323504
254	0x3e1631ac	0.14667386
255	0xbd30d03c	-0.043167338

conv3.bias f4 [64]
0	0x3e02f810	0.12789941
1	0xbd58233a	-0.05276797
2	0x3e3bb6b3	0.18331413
3	0xbd9ba926	-0.07600622
4	0xbd0acf5a	-0.033889152
5	0xbdc7e023	-0.097595476
6	0x3dff8050	0.124756455
7	0xbd992fea	-0.07479842
8	0x3e2d4f60	0.1692481
9	0xbdb8b087	-0.09018045
10	0xbcfc7ea6	-0.03082211
11	0xbe24f74e	-0.16109964
12	0xbcc9602f	-0.024581997
13	0xbda91256	-0.082554504
14	0xbdb69014	-0.089141995
15	0x3dd715d2	0.10502209
16	0xbdcb2448	-0.099190295
17	0xbcc01a99	-0.023450183
18	0xbd75fef5	-0.0600576
19	0x3bd06cdd	0.0063606338
20	0xbd1dce9e	-0.038527124
21	0xbdae592f	-0.08513104
22	0xbdf92997	-0.12166136
23	0xbd949269	-0.07254488
24	0x3dbcacbd	0.09212635
25	0x3df7ca29	0.12099106
26	0xbd67cf9a	-0.05659447
27	0x3def6676	0.11689465
28	0x3ce969c7	0.028492821
29	0x3d95e2e5	0.07318667
30	0x3dcd5668	0.10026246
31	0x3db7c87a	0.08973785
32	0xbdf1df8c	-0.11810216
33	0x3e424bdc	0.1897425
34	0xbbad2ed8	-0.005285125
35	0x3e03d2bc	0.12873358
36	0xbdd584f2	-0.10425748
37	0x3e486715	0.19570573
38	0xbcd3338c	-0.025781415
39	0xbe05227e	-0.13001439
40	0xbda71e0e	-0.08160029
41	0x3e4ba667	0.19887696
42	0x3d067305	0.032824535
43	0xbd4ef1b9	-0.050523493
44	0xbd21b2f7	-0.039477315
45	0x3c945bad	0.01811012
46	0x3c86c4e2	0.016451303
47	0xbce4e4cd	-0.027941132
48	0xbc5f7a8f	-0.01364006
49	0x3e2f60e7	0.17126809
50	0xbd6adcb9	-0.057339404
51	0x3e0e0116	0.13867602
52	0x3dbb213e	0.091372
53	0x3d5ae520	0.053441167
54	0xbd59826f	-0.053102907
55	0xbd3bfb82	-0.045894153
56	0x3e1ba653	0.15200166
57	0xbd7ace35	-0.06123181
58	0xbd4818d4	-0.048851803
59	0xbba99c3f	-0.0051760967
60	0xbd2d54c7	-0.042317178
61	0xbdc800dc	-0.09765789
62	0xbdc32239	-0.09528012
63	0x3e5a83d5	0.21339352

conv4.weight f4 [128, 64, 3, 3]
0	0x3b77db6e	0.003782
1	0xbe1dcab2	-0.15409353
2	0xbdd73f35	-0.10510103
3	0xbda95658	-0.08268422
4	0xbd81236a	-0.06305583
5	0xbdfef819	-0.124496646
6	0x3ce8fb20	0.028440058
7	0xbd90ae59	-0.07064504
8	0xbe1bd7ac	-0.15218991
9	0xba511100	-0.00079752505
10	0xbd2195bf	-0.03944945
11	0x3d18855c	0.037236556
12	0xbc87652e	-0.016527738
13	0x39d62356	0.00040843588
14	0xbc7c12fb	-0.015385385
15	0xbc02241b	-0.0079431785
16	0xbc91ab18	-0.01778178
17	0x3d241f77	0.04006907
18	0x3d7134a1	0.05888808
19	0x3e2f6862	0.17129663
20	0x3d0c10c3	0.034195673
21	0xbda36286	-0.07977776
22	0x3e07ab08	0.13248837
23	0x3bf4de6f	0.007472805
24	0xbe16da2d	-0.14731665
25	0x3d966896	0.07344167
26	0xbcc6056d	-0.02417251
27	0xbd0902d7	-0.033449974
28	0xbcc56d12	-0.02409986
29	0xbb2274da	-0.0024788887
30	0xbcdfb4fd	-0.027307982
31	0xbb7312dc	-0.0037090098
32	0xbd1e18cc	-0.038597867
33	0x3bbcff20	0.005767718
34	0xbd8fdb19	-0.070242114
35	0x3c09469c	0.008378651
36	0x3d2cc4bc	0.042179808
37	0xbbe3f2dc	-0.0069564413
38	0x38723000	5.7742e-05
39	0x3cbdfd7d	0.023192162
40	0x3837010c	4.3631575e-05
41	0xbc2e722b	-0.010647337
42	0xbd43f667	-0.04784241
43	0xbd729335	-0.05922242
44	0xbc766236	-0.015038064
45	0x3d1e59ac	0.038659737
46	0x3e06ceec	0.13164872
47	0xbd4b38e6	-0.04961481
48	0xbd2c1a7b	-0.04201744
49	0x3daf2036	0.085510656
50	0x3dac790a	0.08421524
51	0xbd082f10	-0.033248007
52	0xbe0e6007	-0.13903819
53	0xbd95cb82	-0.07314207
54	0xbd44fa59	-0.048090313
55	0xbd403db4	-0.046933845
56	0x3b7a9bf7	0.0038239935
57	0xbc84280f	-0.016132383
58	0xbd463c69	-0.048397455
59	0x3d2d554e	0.04231768
60	0xbba8941e	-0.00514461
61	0x3d78bc6c	0.060726568
62	0xbda65c26	-0.08123045
63	0x3e434a26	0.19071254
64	0x3e1e618a	0.15466896
65	0x3c2dd274	0.010609258
66	0xbdba9d83	-0.09112074
67	0x3d3d3900	0.046196938
68	0x3e1a17a4	0.1504808
69	0xbd86e263	-0.065861486
70	0xbd8e11a7	-0.06936961
71	0xbd1d48df	-0.038399573
72	0xbc7f510d	-0.015583289
73	0x3d518230	0.051149547
74	0x3d05cefd	0.032668103
75	0xbd6b98a7	-0.057518627
76	0xbd595916	-0.053063475
77	0xbd165b3a	-0.036708094
78	0xbd06ea5d	-0.03293835
79	0x3e2d7765	0.16940077
80	0xbd031915	-0.032006342
81	0xbc064d75	-0.008197178
82	0x3c259835	0.01010709
83	0xbc341579	-0.010991448
84	0xbcdb3e2e	-0.026763048
85	0xbd83ec0e	-0.06441508
86	0x3c9ab28b	0.018883964
87	0xbd43aaf5	-0.04777046
88	0x3d1d75bb	0.038442355
89	0x3cda534e	0.02665105
90	0xbcc64d64	-0.024206825
91	0x3d998ec6	0.07497935
92	0x3d2406b7	0.040045466
93	0xbd81bbbd	-0.06334636
94	0x3d3e528a	0.046465434
95	0x3d1e691f	0.03867447
96	0x3d8a77f4	0.067611605
97	0xbc6682a7	-0.014069236
98	0x38ddbaab	0.00010572871
99	0x3ddbd4b6	0.10733931
100	0xbdbca4c6	-0.092111155
101	0xbdab9bb9	-0.08379311
102	0x3c00c2d9	0.007858955
103	0xbdb38dd7	-0.08767288
104	0xbe14c9e5	-0.14530142
105	0xbd224234	-0.039613917
106	0xbdcb443b	-0.09925123
107	0xbd8e014b	-0.0693384
108	0xbc620764	-0.013795707
109	0x3e381fc0	0.17980862
110	0xbc82ba11	-0.015957864
111	0xbddb7510	-0.10715687
112	0xbc830994	-0.015995778
113	0xbdad5bc9	-0.08464772
114	0xbe0e95b7	-0.13924299
115	0xbe3ebc85	-0.18626602
116	0xbe835b37	-0.2565553
117	0xbdb6887b	-0.0891275
118	0xbe06ddb1	-0.13170506
119	0x3c6f9e49	0.0146251405
120	0x3e192651	0.14956023
121	0x3dc905d7	0.09815567
122	0xbcd3a61d	-0.025836045
123	0xbe7dcedf	-0.24785946
124	0xbd8df24e	-0.069309816
125	0xbd9088cb	-0.07057341
126	0xbe337c93	-0.1752799
127	0xbd95e371	-0.07318772
128	0xbc656626	-0.014001405
129	0xbd956f81	-0.07296658
130	0x3c932487	0.017961754
131	0xbe0bb764	-0.13644177
132	0xbe26b414	-0.16279632
133	0xbda29d7a	-0.079401925
134	0xbe3badd2	-0.18328026
135	0xbe15cd4c	-0.14629096
136	0x3d080ee4	0.033217326
137	0x3b7643ef	0.0037577113
138	0x3d911371	0.07083786
139	0xbc0a9191	-0.008457557
140	0xbdb23e0f	-0.08703243
141	0x3da37214	0.07980743
142	0xbc899a18	-0.01679711
143	0xbd699d66	-0.057034872
144	0xbbbd818a	-0.0057832645
145	0xbd42c34d	-0.047549535
146	0xbdff51ad	-0.1246675
147	0xbe006d44	-0.12541682
148	0xbd63d59a	-0.05562363
149	0xbdb0516e	-0.086092815
150	0x3cdbe56f	0.0268428
151	0x3d87cca0	0.06630826
152	0x3cc23273	0.023705697
153	0xbe67f1b6	-0.22650799
154	0xbe05c157	-0.13062035
155	0xbe348656	-0.1762937
156	0xbd8a09cc	-0.0674015
157	0xbe3c2069	-0.18371738
158	0xbe23ce35	-0.1599663
159	0xbccd3fd3	-0.025054848
160	0x3d8cd296	0.068761036
161	0xbdcfd690	-0.101483464
162	0xbc3e0bf9	-0.011599534
163	0x3c10235d	0.008797494
164	0x3c0a98ba	0.008459264
165	0xbd15c2e8	-0.03656283
166	0xbc14e6b4	-0.009088207
167	0x3d056ec9	0.032576356
168	0xbc3683c2	-0.011139812
169	0xbcdfffaa	-0.02734359
170	0x3cd21424	0.02564437
171	0x3c6c37b8	0.014417581
172	0xbda8be20	-0.082393885
173	0x3dae23be	0.08502911
174	0x3dcefea8	0.101071656
175	0x3dba0df6	0.09084694
176	0xbd4ddf4c	-0.05026178
177	0xbdbb2851	-0.09138549
178	0xbde835f6	-0.11338417
179	0xbdb97bf4	-0.09056845
180	0xbd20b1ee	-0.039232187
181	0xbddbdcdc	-0.10735485
182	0xbe5c72fc	-0.21528238
183	0x3bceccb9	0.006311026
184	0xbd9bf551	-0.0761515
185	0xbe3fdbae	-0.18736145
186	0x3da0596a	0.078295544
187	0xbe09e00a	-0.1346437
188	0xbe492811	-0.1964419
189	0xbc541a38	-0.012945704
190	0x3b885eab	0.004161676
191	0x3d19d3e6	0.037555598
192	0x3c8879de	0.016659673
193	0x3bd77760	0.00657551
194	0xbc7f1360	-0.015568584
195	0x3cc4736c	0.023980819
196	0x3cfb922a	0.030709345
197	0x3c842e21	0.016135277
198	0xbdc62133	-0.09674301
199	0xbe0b42d7	-0.13599716
200	0x3cfa3687	0.030543579
201	0x3c82d2b6	0.015969615
202	0x3cbed5ec	0.023295365
203	0x3d9c734e	0.0763918
204	0xbdf6aabb	-0.12044283
205	0xbcc01973	-0.023449635
206	0x3d5f2bb1	0.054485027
207	0xbe84bdc2	-0.25926024
208	0xbcd51692	-0.026011739
209	0xbe544b2f	-0.20731805
210	0xbd244520	-0.040104985
211	0x3cdb42eb	0.026765307
212	0xbe14e6e2	-0.145412
213	0x3e0bb811	0.13644435
214	0x3ea96a7a	0.33089048
215	0xbe26afbd	-0.16277976
216	0xbd230ec9	-0.039809022
217	0x3dd4b3f4	0.10385886
218	0xbc3f21ba	-0.011665756
219	0x3d932664	0.07185057
220	0x3e00edd2	0.12590721
221	0xbe4bb8ab	-0.19894664
222	0xbcbf4096	-0.023346227
223	0xbd4135a0	-0.04717028
224	0xbe436f48	-0.19085419
225	0xbd958b21	-0.07301927
226	0x3cc48b92	0.023992334
227	0xbddb78ac	-0.10716376
228	0xbdd6ddd1	-0.10491527
229	0x3d915058	0.070954025
230	0x3cc90b2e	0.024541464
231	0x3d278390	0.040896952
232	0x3d8bd159	0.06827039
233	0x3cb237a4	0.021755047
234	0x3e246aef	0.16056417
235	0x3e735773	0.23763828
236	0x3d725b70	0.059169233
237	0xbc29e589	-0.010369667
238	0x3cfb3902	0.030666832
239	0x3e3f3955	0.18674214
240	0x3d3cf778	0.046134442
241	0x3cf97611	0.030451806
242	0x3bef60fc	0.0073052626
243	0x3d96227f	0.07330798
244	0x3e842dc2	0.2581616
245	0xbbba27be	-0.005681007
246	0x3dcfbf7d	0.10143945
247	0x3d50b1f2	0.050950952
248	0xbd87a3e9	-0.0662306
249	0xbd6a2109	-0.05716041
250	0x3e2f2953	0.17105608
251	0xbe5289ec	-0.20560426
252	0xbde1711f	-0.11007904
253	0x3a4e645a	0.000787323
254	0xbd871b1b	-0.06596967
255	0xbe245210	-0.1604693

conv4.bias f4 [128]
0	0x3d926eea	0.071500614
1	0xbc3bcf31	-0.0114629725
2	0xbd07840e	-0.03308492
3	0xbdaefacd	-0.0854393
4	0x3d88310c	0.0664998
5	0xba9839c7	-0.0011613899
6	0xbd8ef9c3	-0.06981232
7	0x3ad552c7	0.001627528
8	0xbdaf3c08	-0.08556372
9	0xbd3a1ab0	-0.045435607
10	0xbe2628aa	-0.1622645
11	0x3e3fa8bb	0.1871671
12	0xbc6bdbdf	-0.014395683
13	0xbd83255e	-0.064036116
14	0xbda9d2c0	-0.082921505
15	0xbc492ddb	-0.012278999
16	0x3e1d9da1	0.15392162
17	0xbd8227a2	-0.063552156
18	0x3dc4840e	0.095955
19	0x3d87685b	0.06611701
20	0x3e330dbc	0.17485708
21	0xbc38b4b9	-0.011273556
22	0xbdda6cc3	-0.10665276
23	0xbdcd5e7f	-0.10027789
24	0x3c03ac0e	0.0080366265
25	0xbc1ecc15	-0.009692212
26	0xbc6231ca	-0.013805816
27	0x3cf5028a	0.029908437
28	0xbd50b7fa	-0.050956704
29	0xbd89a657	-0.0672118
30	0x3cb52e24	0.022116728
31	0xbd0886ea	-0.03333179
32	0xbe13adf9	-0.14421834
33	0x3a827671	0.0009953511
34	0x3c96e58c	0.018420003
35	0x3d4a4da5	0.049390454
36	0xbc8ec5c1	-0.01742828
37	0xbcc0b4fb	-0.023523798
38	0xbd328075	-0.043579537
39	0xbd80aeaf	-0.06283318
40	0x3d2e1da6	0.042508744
41	0xbdb8fe15	-0.09032837
42	0xbcdfda2c	-0.027325712
43	0xbd8e99c9	-0.06962926
44	0xbdce24e8	-0.10065633
45	0x3d085ac0	0.03328967
46	0xbda8b947	-0.08238464
47	0xbdccbf1f	-0.09997391
48	0xbc18ea0d	-0.009333146
49	0x3d241490	0.040058672
50	0x3d1ac134	0.03778191
51	0x3d550bfc	0.052013382
52	0xbd7d2830	-0.061805904
53	0xbe7ceb94	-0.24699241
54	0xbc98c925	-0.0186506
55	0xbe3393ca	-0.17536846
56	0x3d903c1c	0.07042715
57	0xbc14e7ae	-0.00908844
58	0xbd08d027	-0.033401635
59	0x3e05cfb2	0.1306751
60	0xbc8932a9	-0.01674779
61	0xbd52f513	-0.051503252
62	0xbd1423cb	-0.036166947
63	0xbda12f29	-0.07870323
64	0xbc829cd5	-0.015943924
65	0xbc347e43	-0.011016431
66	0x3d8fc1b0	0.07019365
67	0xbc2a2afd	-0.010386226
68	0xbd9bf488	-0.07615
69	0xbd8de3a4	-0.06928185
70	0x3d158287	0.036501434
71	0xbd56bdcd	-0.052427102
72	0xbde4a883	-0.111649536
73	0xbd5b4b1e	-0.053538434
74	0xbd89e09f	-0.06732296
75	0xbdc5c671	-0.0965699
76	0x3d456827	0.04819503
77	0xbd1dd248	-0.038530618
78	0xbd5d2bd6	-0.053996883
79	0x3c1a894b	0.009432147
80	0xbc9b32bb	-0.018945089
81	0xbde0d2f2	-0.109777346
82	0xbe064c1c	-0.13114971
83	0xbd2a815d	-0.041627277
84	0xbda04f63	-0.07827642
85	0xbdd588eb	-0.10426506
86	0xbd6ed950	-0.058312714
87	0xbc05b1ef	-0.008160098
88	0xbd26ecb1	-0.04075307
89	0xbd4a28ce	-0.04935532
90	0x3cdeff9a	0.02722149
91	0x3c012174	0.007881511
92	0xbd8b9b38	-0.06816715
93	0xbab44389	-0.0013753037
94	0x3d495337	0.049151625
95	0xbe7ba0ef	-0.2457311
96	0xbc2409d3	-0.010012108
97	0xbd9c2d7f	-0.07625865
98	0xbd75bc81	-0.059994224
99	0xbaa47717	-0.0012547699
100	0xbd1d803c	-0.038452372
101	0x3d8e9649	0.06962258
102	0xbd0d2cb2	-0.034466453
103	0xbd4fb76e	-0.05071204
104	0x3dc6283c	0.09675643
105	0xbe1e9448	-0.15486252
106	0x3daa0a58	0.08302754
107	0x3e193bc1	0.149642
108	0xbbb588a2	-0.0055399695
109	0x3bbfdabe	0.0058549335
110	0x3cc217c8	0.02369298
111	0x3cd38e14	0.025824584
112	0xbd8a9fb6	-0.06768744
113	0xbdcc98a7	-0.099900536
114	0x3c8f9121	0.017525258
115	0xbd8855c4	-0.066569835
116	0x3de9cdde	0.11416219
117	0xbd099c2a	-0.033596195
118	0xbd6b9666	-0.057516478
119	0x3e19c72c	0.15017384
120	0xbc2e64a8	-0.0106441155
121	0xbd49d3fb	-0.049274426
122	0xbdec9391	-0.115515836
123	0xbc25d9be	-0.010122715
124	0xbca2ec3b	-0.019888034
125	0xbd2e7972	-0.042596288
126	0xbc0e308d	-0.008678568
127	0xbe247c6a	-0.16063085

fc1.weight f4 [7, 512]
0	0x3e9b03ef	0.3027644
1	0xbd233281	-0.039843086
2	0x3e0ae134	0.1356247
3	0x3cc9f450	0.02465263
4	0x3d2f8cb1	0.042858783
5	0xbd73db97	-0.05953559
6	0x3d65b6dd	0.056082595
7	0xbeb712ac	-0.35756433
8	0x3ead5712	0.33855492
9	0xbd1cbf45	-0.038268346
10	0x3e8b29f3	0.27180442
11	0xbd8e5903	-0.069505714
12	0xbd6f49ab	-0.058419865
13	0x3d9e46c0	0.07728338
14	0xbdfd9330	-0.123815894
15	0x3debaad1	0.1150719
16	0xbcacf928	-0.0211149
17	0x3e9fb99b	0.31196293
18	0xbd519d11	-0.05117518
19	0x3e393540	0.1808672
20	0xbe212834	-0.15737993
21	0x3dc9e2ca	0.0985771
22	0xbe59db1a	-0.21274987
23	0x3cf6df89	0.030135887
24	0x3c2641de	0.01014754
25	0x3c2f4244	0.010696951
26	0xbd329131	-0.043595497
27	0xbca4f7b1	-0.02013764
28	0xbdb2399b	-0.087023936
29	0x3d7f72e4	0.062365428
30	0xbdf24ef9	-0.11831469
31	0xbb5dcbf3	-0.0033843487
32	0xbcb98857	-0.02264802
33	0xbec09cac	-0.3761953
34	0x3df3f2e2	0.119115606
35	0xbc9d42b5	-0.019196847
36	0x3c373565	0.011182164
37	0xbc26323d	-0.010143814
38	0xbc672c51	-0.014109687
39	0xbc1c4018	-0.0095367655
40	0x3d87d4fb	0.0663242
41	0x3e1290ba	0.14313021
42	0xbcf26a4b	-0.0295917
43	0xbd75cba4	-0.06000866
44	0xbea1e055	-0.31616464
45	0x3d3ea2f9	0.04654214
46	0x3aad90a2	0.0013241956
47	0xbdd13828	-0.10215789
48	0x3ddbb1f8	0.10727304
49	0x3d859a87	0.065236144
50	0xbccbce93	-0.024878776
51	0xbd788700	-0.06067562
52	0x3e034fc0	0.12823391
53	0xbd453cbe	-0.04815363
54	0xbc6c8a31	-0.014437244
55	0x3d922e8b	0.071377836
56	0x3cac8492	0.021059308
57	0xbd1c25a8	-0.03812185
58	0xbd77808e	-0.060425334
59	0xbbed09b5	-0.007233823
60	0x3da91b03	0.08257105
61	0x3db10c71	0.08644951
62	0xbc8378a4	-0.016048737
63	0xbcd329ce	-0.02577677
64	0x3d6d3af4	0.05791755
65	0xbdfece2c	-0.12441668
66	0x3decaca1	0.11556364
67	0xbda401a9	-0.08008129
68	0x3ca146f8	0.01968716
69	0xbcd22f14	-0.025657214
70	0x3d43f7e1	0.047843818
71	0x3dbe58ce	0.09294282
72	0xbc540e15	-0.012942811
73	0xbc897070	-0.016777247
74	0x398522cc	0.00025393663
75	0x3dbae843	0.09126332
76	0x3e92b613	0.28654537
77	0xbe78dd72	-0.24303225
78	0xbe652c42	-0.22380164
79	0x3d2d8d36	0.042370997
80	0xbdd64f6f	-0.104643695
81	0x3e776a01	0.24161531
82	0x3a84545a	0.001009594
83	0x3d0f5bda	0.034999706
84	0xbd5cb0b6	-0.053879462
85	0xbd6027d0	-0.05472547
86	0x3cac0761	0.020999612
87	0xbca260bb	-0.019821515
88	0xbc136de6	-0.00899837
89	0x3c9b6f72	0.01897404
90	0x3c8e9c47	0.017408503
91	0xbd27a6bf	-0.040930506
92	0xbdb5bdf1	-0.08874119
93	0xbd4cfd11	-0.05004603
94	0xbde24125	-0.110475816
95	0x3dd01585	0.101603545
96	0x3dc06da3	0.093959115
97	0x3ca6793a	0.020321477
98	0x3dc9f080	0.09860325
99	0xbdb26a8f	-0.08711731
100	0x3d93d1be	0.072177395
101	0x3da4ed0d	0.08053026
102	0xbc39be67	-0.011336899
103	0x3d2ec1cb	0.042665284
104	0xbcc496e5	-0.023997733
105	0x38b09729	8.42049e-05
106	0xbb964e89	-0.004586999
107	0xbc37fe1f	-0.011230021
108	0xbc93be7b	-0.018035164
109	0x3d89c729	0.0672744
110	0x3d305a77	0.043055024
111	0x3e3da6ef	0.18520711
112	0xbd047542	-0.03233839
113	0x3c93825b	0.018006494
114	0xbc88b43d	-0.016687507
115	0xbd28f1a9	-0.04124609
116	0xbdae5282	-0.08511831
117	0xbeb42bd3	-0.35189685
118	0xbe710218	-0.23535955
119	0x3d6674c4	0.0562637
120	0x3d19c398	0.03754005
121	0x3d2e0e34	0.042494014
122	0x3caa7c59	0.020811247
123	0xbc090823	-0.008363756
124	0xbcc5d710	-0.024150401
125	0x3aa960d6	0.0012922536
126	0x3cba107d	0.02271294
127	0xbc35b8fa	-0.011091465
128	0x3e02b8a2	0.12765744
129	0xbd964288	-0.073369086
130	0x3e0e3b91	0.1388991
131	0xbcd6c1d4	-0.026215471
132	0x3b9c164f	0.0047634016
133	0xbd4763b3	-0.048679065
134	0xbcd36ee1	-0.025809707
135	0x3c800282	0.015626196
136	0x3d22a49d	0.03970777
137	0xbe43da0a	-0.19126144
138	0x3dfa0bbe	0.12209271
139	0xbde2149d	-0.11039088
140	0x3e44d719	0.19222678
141	0x3ea59d1d	0.3234643
142	0xbe57ca07	-0.21073161
143	0xbdb1fc07	-0.086906485
144	0x3d656b2a	0.056010403
145	0x3d837457	0.064186744
146	0xbcefb17a	-0.029259432
147	0x3c3a753c	0.01138049
148	0xbcbc03e1	-0.022951068
149	0xbc998712	-0.018741164
150	0xbd4eef6d	-0.050521303
151	0xbc94f26e	-0.018182006
152	0x3c012321	0.007881911
153	0xbca8f325	-0.020623753
154	0x3bc018f8	0.0058623515
155	0xbd1a0d26	-0.037610196
156	0x3bcda3ae	0.0062756157
157	0x3cbbe268	0.022935107
158	0x3d093539	0.033498023
159	0xbd7ed7eb	-0.062217634
160	0xbd738330	-0.059451282
161	0xbd60a8ca	-0.05484847
162	0x3d122ff0	0.035690248
163	0x3d81aef1	0.063321956
164	0x3d82f17d	0.063937165
165	0x3d39e9ef	0.045389112
166	0x3d8b71d7	0.068088226
167	0x3c224af7	0.009905568
168	0xbcae224c	-0.021256588
169	0xbcc234ee	-0.02370688
170	0xbbbcc4b5	-0.005760754
171	0x3afcd3e5	0.0019289224
172	0x3e3bedd8	0.18352449
173	0x3d956863	0.07295301
174	0xbda3029a	-0.079594806
175	0x3e0199cb	0.12656324
176	0x3d3ee616	0.046606146
177	0x3d8b62d7	0.068059616
178	0xbcb2d281	-0.021828892
179	0xbc83bc34	-0.016080953
180	0x3cd7ef50	0.02635923
181	0x3d0d3779	0.03447673
182	0x3d782e32	0.06059093
183	0x3cb30742	0.021854047
184	0xbd4921f8	-0.04910466
185	0xbd2d118f	-0.042253073
186	0xbd22ad85	-0.039716262
187	0xbea6e772	-0.32598454
188	0xbbe35d8b	-0.0069386414
189	0xbdce78f0	-0.10081661
190	0x3dc4ede7	0.09615689
191	0x3dc01ff2	0.09381093
192	0xbde01ad6	-0.109426185
193	0xbd697587	-0.05699685
194	0x3d9ac9da	0.075580314
195	0x3dd4a98c	0.10383901
196	0x3d94049b	0.07227441
197	0x3d6d9e84	0.0580125
198	0xbe142e47	-0.14470778
199	0xbdec8933	-0.11549606
200	0xbcb1ae68	-0.021689609
201	0x3d122bc3	0.035686266
202	0x3c33bc34	0.010970164
203	0x3c942ee2	0.018088762
204	0x3cf6c7a4	0.030124493
205	0x3d6d320d	0.05790906
206	0x3d323fbe	0.04351782
207	0x3d04082c	0.032234356
208	0xbd8a5cf5	-0.067560114
209	0xbd230b03	-0.039805423
210	0x3d4d1791	0.050071303
211	0x3a0be5da	0.000533668
212	0x3e2d1358	0.1690191
213	0x3e0d60fb	0.13806526
214	0xbcd89bd6	-0.026441496
215	0x3d1d5387	0.038409736
216	0x3e6fc595	0.23415215
217	0xbe779cac	-0.2418086
218	0xbda338f8	-0.0796985
219	0x3d90909d	0.07058833
220	0xbcc17460	-0.023615062
221	0xbdc2103c	-0.09475753
222	0x3d5e20bd	0.05423044
223	0xbb383c86	-0.0028112247
224	0xbea38d29	-0.31943634
225	0x3d2e91b9	0.04261944
226	0xbf142101	-0.5786286
227	0x3cc32e88	0.023825899
228	0xbd8e464d	-0.069470026
229	0xbd7206f5	-0.059088666
230	0x3dabf52e	0.08396374
231	0x3d389c8d	0.045071173
232	0xbd1bed8c	-0.03806834
233	0x3d96a845	0.073563136
234	0x3be5f801	0.0070180898
235	0x3d93f0ff	0.07223701
236	0x3c9ecd64	0.019385047
237	0xbd908087	-0.07055765
238	0xbe590f38	-0.21197212
239	0xbb130aea	-0.0022436925
240	0x3d16f5e8	0.03685561
241	0xbd1734f2	-0.036915727
242	0x3c730553	0.014832812
243	0x3ccc6e2e	0.024954882
244	0xbcbe4b71	-0.023229333
245	0xbdaf0d64	-0.08547476
246	0x3d1c0bf3	0.038097333
247	0x3e2d33dc	0.16914314
248	0x3e4b35f0	0.19844794
249	0x3cce69cf	0.025196938
250	0xbe4a8f0a	-0.19781128
251	0xbd05f94a	-0.032708444
252	0x3d5257f7	0.05135342
253	0xbe60ea9a	-0.21964493
254	0xbda00f4f	-0.0781542
255	0xbe944f67	-0.2896683

fc1.bias f4 [7]
0	0x3d2aaebe	0.041670553
1	0xbe12f9e2	-0.14353135
2	0x3e0bbe31	0.13646771
3	0x3e053107	0.13006984
4	0x3c8c3ee2	0.017119829
5	0xbd92fa37	-0.07176631
6	0x3d3187a2	0.04334224
